{"format": "layers-model", "generatedBy": "keras v2.3.0-tf", "convertedBy": "TensorFlow.js Converter v3.2.0", "modelTopology": {"keras_version": "2.3.0-tf", "backend": "tensorflow", "model_config": {"class_name": "Model", "config": {"name": "model", "layers": [{"class_name": "InputLayer", "config": {"batch_input_shape": [null, 3, 320, 320], "dtype": "float32", "sparse": false, "ragged": false, "name": "input_0"}, "name": "input_0", "inbound_nodes": []}, {"class_name": "ZeroPadding2D", "config": {"name": "1890_pad", "trainable": true, "dtype": "float32", "padding": [[1, 1], [1, 1]], "data_format": "channels_first"}, "name": "1890_pad", "inbound_nodes": [[["input_0", 0, 0, {}]]]}, {"class_name": "Conv2D", "config": {"name": "1890", "trainable": true, "dtype": "float32", "filters": 64, "kernel_size": [3, 3], "strides": [1, 1], "padding": "valid", "data_format": "channels_first", "dilation_rate": [1, 1], "activation": "linear", "use_bias": true, "kernel_initializer": {"class_name": "Zeros", "config": {}}, "bias_initializer": {"class_name": "Zeros", "config": {}}, "kernel_regularizer": null, "bias_regularizer": null, "activity_regularizer": null, "kernel_constraint": null, "bias_constraint": null}, "name": "1890", "inbound_nodes": [[["1890_pad", 0, 0, {}]]]}, {"class_name": "Activation", "config": {"name": "801", "trainable": true, "dtype": "float32", "activation": "relu"}, "name": "801", "inbound_nodes": [[["1890", 0, 0, {}]]]}, {"class_name": "ZeroPadding2D", "config": {"name": "1893_pad", "trainable": true, "dtype": "float32", "padding": [[1, 1], [1, 1]], "data_format": "channels_first"}, "name": "1893_pad", "inbound_nodes": [[["801", 0, 0, {}]]]}, {"class_name": "Conv2D", "config": {"name": "1893", "trainable": true, "dtype": "float32", "filters": 32, "kernel_size": [3, 3], "strides": [1, 1], "padding": "valid", "data_format": "channels_first", "dilation_rate": [1, 1], "activation": "linear", "use_bias": true, "kernel_initializer": {"class_name": "Zeros", "config": {}}, "bias_initializer": {"class_name": "Zeros", "config": {}}, "kernel_regularizer": null, "bias_regularizer": null, "activity_regularizer": null, "kernel_constraint": null, "bias_constraint": null}, "name": "1893", "inbound_nodes": [[["1893_pad", 0, 0, {}]]]}, {"class_name": "Activation", "config": {"name": "804", "trainable": true, "dtype": "float32", "activation": "relu"}, "name": "804", "inbound_nodes": [[["1893", 0, 0, {}]]]}, {"class_name": "ZeroPadding2D", "config": {"name": "805_pad", "trainable": true, "dtype": "float32", "padding": [[0, 1], [0, 1]], "data_format": "channels_first"}, "name": "805_pad", "inbound_nodes": [[["804", 0, 0, {}]]]}, {"class_name": "MaxPooling2D", "config": {"name": "805", "trainable": true, "dtype": "float32", "pool_size": [2, 2], "padding": "valid", "strides": [2, 2], "data_format": "channels_first"}, "name": "805", "inbound_nodes": [[["805_pad", 0, 0, {}]]]}, {"class_name": "ZeroPadding2D", "config": {"name": "1896_pad", "trainable": true, "dtype": "float32", "padding": [[1, 1], [1, 1]], "data_format": "channels_first"}, "name": "1896_pad", "inbound_nodes": [[["805", 0, 0, {}]]]}, {"class_name": "Conv2D", "config": {"name": "1896", "trainable": true, "dtype": "float32", "filters": 32, "kernel_size": [3, 3], "strides": [1, 1], "padding": "valid", "data_format": "channels_first", "dilation_rate": [1, 1], "activation": "linear", "use_bias": true, "kernel_initializer": {"class_name": "Zeros", "config": {}}, "bias_initializer": {"class_name": "Zeros", "config": {}}, "kernel_regularizer": null, "bias_regularizer": null, "activity_regularizer": null, "kernel_constraint": null, "bias_constraint": null}, "name": "1896", "inbound_nodes": [[["1896_pad", 0, 0, {}]]]}, {"class_name": "Activation", "config": {"name": "808", "trainable": true, "dtype": "float32", "activation": "relu"}, "name": "808", "inbound_nodes": [[["1896", 0, 0, {}]]]}, {"class_name": "ZeroPadding2D", "config": {"name": "809_pad", "trainable": true, "dtype": "float32", "padding": [[0, 1], [0, 1]], "data_format": "channels_first"}, "name": "809_pad", "inbound_nodes": [[["808", 0, 0, {}]]]}, {"class_name": "MaxPooling2D", "config": {"name": "809", "trainable": true, "dtype": "float32", "pool_size": [2, 2], "padding": "valid", "strides": [2, 2], "data_format": "channels_first"}, "name": "809", "inbound_nodes": [[["809_pad", 0, 0, {}]]]}, {"class_name": "ZeroPadding2D", "config": {"name": "1899_pad", "trainable": true, "dtype": "float32", "padding": [[1, 1], [1, 1]], "data_format": "channels_first"}, "name": "1899_pad", "inbound_nodes": [[["809", 0, 0, {}]]]}, {"class_name": "Conv2D", "config": {"name": "1899", "trainable": true, "dtype": "float32", "filters": 32, "kernel_size": [3, 3], "strides": [1, 1], "padding": "valid", "data_format": "channels_first", "dilation_rate": [1, 1], "activation": "linear", "use_bias": true, "kernel_initializer": {"class_name": "Zeros", "config": {}}, "bias_initializer": {"class_name": "Zeros", "config": {}}, "kernel_regularizer": null, "bias_regularizer": null, "activity_regularizer": null, "kernel_constraint": null, "bias_constraint": null}, "name": "1899", "inbound_nodes": [[["1899_pad", 0, 0, {}]]]}, {"class_name": "Activation", "config": {"name": "812", "trainable": true, "dtype": "float32", "activation": "relu"}, "name": "812", "inbound_nodes": [[["1899", 0, 0, {}]]]}, {"class_name": "ZeroPadding2D", "config": {"name": "813_pad", "trainable": true, "dtype": "float32", "padding": [[0, 1], [0, 1]], "data_format": "channels_first"}, "name": "813_pad", "inbound_nodes": [[["812", 0, 0, {}]]]}, {"class_name": "MaxPooling2D", "config": {"name": "813", "trainable": true, "dtype": "float32", "pool_size": [2, 2], "padding": "valid", "strides": [2, 2], "data_format": "channels_first"}, "name": "813", "inbound_nodes": [[["813_pad", 0, 0, {}]]]}, {"class_name": "ZeroPadding2D", "config": {"name": "1902_pad", "trainable": true, "dtype": "float32", "padding": [[1, 1], [1, 1]], "data_format": "channels_first"}, "name": "1902_pad", "inbound_nodes": [[["813", 0, 0, {}]]]}, {"class_name": "Conv2D", "config": {"name": "1902", "trainable": true, "dtype": "float32", "filters": 32, "kernel_size": [3, 3], "strides": [1, 1], "padding": "valid", "data_format": "channels_first", "dilation_rate": [1, 1], "activation": "linear", "use_bias": true, "kernel_initializer": {"class_name": "Zeros", "config": {}}, "bias_initializer": {"class_name": "Zeros", "config": {}}, "kernel_regularizer": null, "bias_regularizer": null, "activity_regularizer": null, "kernel_constraint": null, "bias_constraint": null}, "name": "1902", "inbound_nodes": [[["1902_pad", 0, 0, {}]]]}, {"class_name": "Activation", "config": {"name": "816", "trainable": true, "dtype": "float32", "activation": "relu"}, "name": "816", "inbound_nodes": [[["1902", 0, 0, {}]]]}, {"class_name": "ZeroPadding2D", "config": {"name": "817_pad", "trainable": true, "dtype": "float32", "padding": [[0, 1], [0, 1]], "data_format": "channels_first"}, "name": "817_pad", "inbound_nodes": [[["816", 0, 0, {}]]]}, {"class_name": "MaxPooling2D", "config": {"name": "817", "trainable": true, "dtype": "float32", "pool_size": [2, 2], "padding": "valid", "strides": [2, 2], "data_format": "channels_first"}, "name": "817", "inbound_nodes": [[["817_pad", 0, 0, {}]]]}, {"class_name": "ZeroPadding2D", "config": {"name": "1905_pad", "trainable": true, "dtype": "float32", "padding": [[1, 1], [1, 1]], "data_format": "channels_first"}, "name": "1905_pad", "inbound_nodes": [[["817", 0, 0, {}]]]}, {"class_name": "Conv2D", "config": {"name": "1905", "trainable": true, "dtype": "float32", "filters": 32, "kernel_size": [3, 3], "strides": [1, 1], "padding": "valid", "data_format": "channels_first", "dilation_rate": [1, 1], "activation": "linear", "use_bias": true, "kernel_initializer": {"class_name": "Zeros", "config": {}}, "bias_initializer": {"class_name": "Zeros", "config": {}}, "kernel_regularizer": null, "bias_regularizer": null, "activity_regularizer": null, "kernel_constraint": null, "bias_constraint": null}, "name": "1905", "inbound_nodes": [[["1905_pad", 0, 0, {}]]]}, {"class_name": "Activation", "config": {"name": "820", "trainable": true, "dtype": "float32", "activation": "relu"}, "name": "820", "inbound_nodes": [[["1905", 0, 0, {}]]]}, {"class_name": "ZeroPadding2D", "config": {"name": "821_pad", "trainable": true, "dtype": "float32", "padding": [[0, 1], [0, 1]], "data_format": "channels_first"}, "name": "821_pad", "inbound_nodes": [[["820", 0, 0, {}]]]}, {"class_name": "MaxPooling2D", "config": {"name": "821", "trainable": true, "dtype": "float32", "pool_size": [2, 2], "padding": "valid", "strides": [2, 2], "data_format": "channels_first"}, "name": "821", "inbound_nodes": [[["821_pad", 0, 0, {}]]]}, {"class_name": "ZeroPadding2D", "config": {"name": "1908_pad", "trainable": true, "dtype": "float32", "padding": [[1, 1], [1, 1]], "data_format": "channels_first"}, "name": "1908_pad", "inbound_nodes": [[["821", 0, 0, {}]]]}, {"class_name": "Conv2D", "config": {"name": "1908", "trainable": true, "dtype": "float32", "filters": 32, "kernel_size": [3, 3], "strides": [1, 1], "padding": "valid", "data_format": "channels_first", "dilation_rate": [1, 1], "activation": "linear", "use_bias": true, "kernel_initializer": {"class_name": "Zeros", "config": {}}, "bias_initializer": {"class_name": "Zeros", "config": {}}, "kernel_regularizer": null, "bias_regularizer": null, "activity_regularizer": null, "kernel_constraint": null, "bias_constraint": null}, "name": "1908", "inbound_nodes": [[["1908_pad", 0, 0, {}]]]}, {"class_name": "Activation", "config": {"name": "824", "trainable": true, "dtype": "float32", "activation": "relu"}, "name": "824", "inbound_nodes": [[["1908", 0, 0, {}]]]}, {"class_name": "ZeroPadding2D", "config": {"name": "1911_pad", "trainable": true, "dtype": "float32", "padding": [[2, 2], [2, 2]], "data_format": "channels_first"}, "name": "1911_pad", "inbound_nodes": [[["824", 0, 0, {}]]]}, {"class_name": "Conv2D", "config": {"name": "1911", "trainable": true, "dtype": "float32", "filters": 32, "kernel_size": [3, 3], "strides": [1, 1], "padding": "valid", "data_format": "channels_first", "dilation_rate": [2, 2], "activation": "linear", "use_bias": true, "kernel_initializer": {"class_name": "Zeros", "config": {}}, "bias_initializer": {"class_name": "Zeros", "config": {}}, "kernel_regularizer": null, "bias_regularizer": null, "activity_regularizer": null, "kernel_constraint": null, "bias_constraint": null}, "name": "1911", "inbound_nodes": [[["1911_pad", 0, 0, {}]]]}, {"class_name": "Activation", "config": {"name": "827", "trainable": true, "dtype": "float32", "activation": "relu"}, "name": "827", "inbound_nodes": [[["1911", 0, 0, {}]]]}, {"class_name": "Concatenate", "config": {"name": "828", "trainable": true, "dtype": "float32", "axis": 1}, "name": "828", "inbound_nodes": [[["827", 0, 0, {}], ["824", 0, 0, {}]]]}, {"class_name": "ZeroPadding2D", "config": {"name": "1914_pad", "trainable": true, "dtype": "float32", "padding": [[1, 1], [1, 1]], "data_format": "channels_first"}, "name": "1914_pad", "inbound_nodes": [[["828", 0, 0, {}]]]}, {"class_name": "Conv2D", "config": {"name": "1914", "trainable": true, "dtype": "float32", "filters": 32, "kernel_size": [3, 3], "strides": [1, 1], "padding": "valid", "data_format": "channels_first", "dilation_rate": [1, 1], "activation": "linear", "use_bias": true, "kernel_initializer": {"class_name": "Zeros", "config": {}}, "bias_initializer": {"class_name": "Zeros", "config": {}}, "kernel_regularizer": null, "bias_regularizer": null, "activity_regularizer": null, "kernel_constraint": null, "bias_constraint": null}, "name": "1914", "inbound_nodes": [[["1914_pad", 0, 0, {}]]]}, {"class_name": "Activation", "config": {"name": "831", "trainable": true, "dtype": "float32", "activation": "relu"}, "name": "831", "inbound_nodes": [[["1914", 0, 0, {}]]]}, {"class_name": "UpSampling2D", "config": {"name": "848", "trainable": true, "dtype": "float32", "size": [2, 2], "data_format": "channels_first", "interpolation": "nearest"}, "name": "848", "inbound_nodes": [[["831", 0, 0, {}]]]}, {"class_name": "Concatenate", "config": {"name": "849", "trainable": true, "dtype": "float32", "axis": 1}, "name": "849", "inbound_nodes": [[["848", 0, 0, {}], ["820", 0, 0, {}]]]}, {"class_name": "ZeroPadding2D", "config": {"name": "1917_pad", "trainable": true, "dtype": "float32", "padding": [[1, 1], [1, 1]], "data_format": "channels_first"}, "name": "1917_pad", "inbound_nodes": [[["849", 0, 0, {}]]]}, {"class_name": "Conv2D", "config": {"name": "1917", "trainable": true, "dtype": "float32", "filters": 32, "kernel_size": [3, 3], "strides": [1, 1], "padding": "valid", "data_format": "channels_first", "dilation_rate": [1, 1], "activation": "linear", "use_bias": true, "kernel_initializer": {"class_name": "Zeros", "config": {}}, "bias_initializer": {"class_name": "Zeros", "config": {}}, "kernel_regularizer": null, "bias_regularizer": null, "activity_regularizer": null, "kernel_constraint": null, "bias_constraint": null}, "name": "1917", "inbound_nodes": [[["1917_pad", 0, 0, {}]]]}, {"class_name": "Activation", "config": {"name": "852", "trainable": true, "dtype": "float32", "activation": "relu"}, "name": "852", "inbound_nodes": [[["1917", 0, 0, {}]]]}, {"class_name": "UpSampling2D", "config": {"name": "869", "trainable": true, "dtype": "float32", "size": [2, 2], "data_format": "channels_first", "interpolation": "nearest"}, "name": "869", "inbound_nodes": [[["852", 0, 0, {}]]]}, {"class_name": "Concatenate", "config": {"name": "870", "trainable": true, "dtype": "float32", "axis": 1}, "name": "870", "inbound_nodes": [[["869", 0, 0, {}], ["816", 0, 0, {}]]]}, {"class_name": "ZeroPadding2D", "config": {"name": "1920_pad", "trainable": true, "dtype": "float32", "padding": [[1, 1], [1, 1]], "data_format": "channels_first"}, "name": "1920_pad", "inbound_nodes": [[["870", 0, 0, {}]]]}, {"class_name": "Conv2D", "config": {"name": "1920", "trainable": true, "dtype": "float32", "filters": 32, "kernel_size": [3, 3], "strides": [1, 1], "padding": "valid", "data_format": "channels_first", "dilation_rate": [1, 1], "activation": "linear", "use_bias": true, "kernel_initializer": {"class_name": "Zeros", "config": {}}, "bias_initializer": {"class_name": "Zeros", "config": {}}, "kernel_regularizer": null, "bias_regularizer": null, "activity_regularizer": null, "kernel_constraint": null, "bias_constraint": null}, "name": "1920", "inbound_nodes": [[["1920_pad", 0, 0, {}]]]}, {"class_name": "Activation", "config": {"name": "873", "trainable": true, "dtype": "float32", "activation": "relu"}, "name": "873", "inbound_nodes": [[["1920", 0, 0, {}]]]}, {"class_name": "UpSampling2D", "config": {"name": "890", "trainable": true, "dtype": "float32", "size": [2, 2], "data_format": "channels_first", "interpolation": "nearest"}, "name": "890", "inbound_nodes": [[["873", 0, 0, {}]]]}, {"class_name": "Concatenate", "config": {"name": "891", "trainable": true, "dtype": "float32", "axis": 1}, "name": "891", "inbound_nodes": [[["890", 0, 0, {}], ["812", 0, 0, {}]]]}, {"class_name": "ZeroPadding2D", "config": {"name": "1923_pad", "trainable": true, "dtype": "float32", "padding": [[1, 1], [1, 1]], "data_format": "channels_first"}, "name": "1923_pad", "inbound_nodes": [[["891", 0, 0, {}]]]}, {"class_name": "Conv2D", "config": {"name": "1923", "trainable": true, "dtype": "float32", "filters": 32, "kernel_size": [3, 3], "strides": [1, 1], "padding": "valid", "data_format": "channels_first", "dilation_rate": [1, 1], "activation": "linear", "use_bias": true, "kernel_initializer": {"class_name": "Zeros", "config": {}}, "bias_initializer": {"class_name": "Zeros", "config": {}}, "kernel_regularizer": null, "bias_regularizer": null, "activity_regularizer": null, "kernel_constraint": null, "bias_constraint": null}, "name": "1923", "inbound_nodes": [[["1923_pad", 0, 0, {}]]]}, {"class_name": "Activation", "config": {"name": "894", "trainable": true, "dtype": "float32", "activation": "relu"}, "name": "894", "inbound_nodes": [[["1923", 0, 0, {}]]]}, {"class_name": "UpSampling2D", "config": {"name": "911", "trainable": true, "dtype": "float32", "size": [2, 2], "data_format": "channels_first", "interpolation": "nearest"}, "name": "911", "inbound_nodes": [[["894", 0, 0, {}]]]}, {"class_name": "Concatenate", "config": {"name": "912", "trainable": true, "dtype": "float32", "axis": 1}, "name": "912", "inbound_nodes": [[["911", 0, 0, {}], ["808", 0, 0, {}]]]}, {"class_name": "ZeroPadding2D", "config": {"name": "1926_pad", "trainable": true, "dtype": "float32", "padding": [[1, 1], [1, 1]], "data_format": "channels_first"}, "name": "1926_pad", "inbound_nodes": [[["912", 0, 0, {}]]]}, {"class_name": "Conv2D", "config": {"name": "1926", "trainable": true, "dtype": "float32", "filters": 32, "kernel_size": [3, 3], "strides": [1, 1], "padding": "valid", "data_format": "channels_first", "dilation_rate": [1, 1], "activation": "linear", "use_bias": true, "kernel_initializer": {"class_name": "Zeros", "config": {}}, "bias_initializer": {"class_name": "Zeros", "config": {}}, "kernel_regularizer": null, "bias_regularizer": null, "activity_regularizer": null, "kernel_constraint": null, "bias_constraint": null}, "name": "1926", "inbound_nodes": [[["1926_pad", 0, 0, {}]]]}, {"class_name": "Activation", "config": {"name": "915", "trainable": true, "dtype": "float32", "activation": "relu"}, "name": "915", "inbound_nodes": [[["1926", 0, 0, {}]]]}, {"class_name": "UpSampling2D", "config": {"name": "932", "trainable": true, "dtype": "float32", "size": [2, 2], "data_format": "channels_first", "interpolation": "nearest"}, "name": "932", "inbound_nodes": [[["915", 0, 0, {}]]]}, {"class_name": "Concatenate", "config": {"name": "933", "trainable": true, "dtype": "float32", "axis": 1}, "name": "933", "inbound_nodes": [[["932", 0, 0, {}], ["804", 0, 0, {}]]]}, {"class_name": "ZeroPadding2D", "config": {"name": "1929_pad", "trainable": true, "dtype": "float32", "padding": [[1, 1], [1, 1]], "data_format": "channels_first"}, "name": "1929_pad", "inbound_nodes": [[["933", 0, 0, {}]]]}, {"class_name": "Conv2D", "config": {"name": "1929", "trainable": true, "dtype": "float32", "filters": 64, "kernel_size": [3, 3], "strides": [1, 1], "padding": "valid", "data_format": "channels_first", "dilation_rate": [1, 1], "activation": "linear", "use_bias": true, "kernel_initializer": {"class_name": "Zeros", "config": {}}, "bias_initializer": {"class_name": "Zeros", "config": {}}, "kernel_regularizer": null, "bias_regularizer": null, "activity_regularizer": null, "kernel_constraint": null, "bias_constraint": null}, "name": "1929", "inbound_nodes": [[["1929_pad", 0, 0, {}]]]}, {"class_name": "Activation", "config": {"name": "936", "trainable": true, "dtype": "float32", "activation": "relu"}, "name": "936", "inbound_nodes": [[["1929", 0, 0, {}]]]}, {"class_name": "Add", "config": {"name": "937", "trainable": true, "dtype": "float32"}, "name": "937", "inbound_nodes": [[["936", 0, 0, {}], ["801", 0, 0, {}]]]}, {"class_name": "ZeroPadding2D", "config": {"name": "938_pad", "trainable": true, "dtype": "float32", "padding": [[0, 1], [0, 1]], "data_format": "channels_first"}, "name": "938_pad", "inbound_nodes": [[["937", 0, 0, {}]]]}, {"class_name": "MaxPooling2D", "config": {"name": "938", "trainable": true, "dtype": "float32", "pool_size": [2, 2], "padding": "valid", "strides": [2, 2], "data_format": "channels_first"}, "name": "938", "inbound_nodes": [[["938_pad", 0, 0, {}]]]}, {"class_name": "ZeroPadding2D", "config": {"name": "1932_pad", "trainable": true, "dtype": "float32", "padding": [[1, 1], [1, 1]], "data_format": "channels_first"}, "name": "1932_pad", "inbound_nodes": [[["938", 0, 0, {}]]]}, {"class_name": "Conv2D", "config": {"name": "1932", "trainable": true, "dtype": "float32", "filters": 128, "kernel_size": [3, 3], "strides": [1, 1], "padding": "valid", "data_format": "channels_first", "dilation_rate": [1, 1], "activation": "linear", "use_bias": true, "kernel_initializer": {"class_name": "Zeros", "config": {}}, "bias_initializer": {"class_name": "Zeros", "config": {}}, "kernel_regularizer": null, "bias_regularizer": null, "activity_regularizer": null, "kernel_constraint": null, "bias_constraint": null}, "name": "1932", "inbound_nodes": [[["1932_pad", 0, 0, {}]]]}, {"class_name": "Activation", "config": {"name": "941", "trainable": true, "dtype": "float32", "activation": "relu"}, "name": "941", "inbound_nodes": [[["1932", 0, 0, {}]]]}, {"class_name": "ZeroPadding2D", "config": {"name": "1935_pad", "trainable": true, "dtype": "float32", "padding": [[1, 1], [1, 1]], "data_format": "channels_first"}, "name": "1935_pad", "inbound_nodes": [[["941", 0, 0, {}]]]}, {"class_name": "Conv2D", "config": {"name": "1935", "trainable": true, "dtype": "float32", "filters": 32, "kernel_size": [3, 3], "strides": [1, 1], "padding": "valid", "data_format": "channels_first", "dilation_rate": [1, 1], "activation": "linear", "use_bias": true, "kernel_initializer": {"class_name": "Zeros", "config": {}}, "bias_initializer": {"class_name": "Zeros", "config": {}}, "kernel_regularizer": null, "bias_regularizer": null, "activity_regularizer": null, "kernel_constraint": null, "bias_constraint": null}, "name": "1935", "inbound_nodes": [[["1935_pad", 0, 0, {}]]]}, {"class_name": "Activation", "config": {"name": "944", "trainable": true, "dtype": "float32", "activation": "relu"}, "name": "944", "inbound_nodes": [[["1935", 0, 0, {}]]]}, {"class_name": "ZeroPadding2D", "config": {"name": "945_pad", "trainable": true, "dtype": "float32", "padding": [[0, 1], [0, 1]], "data_format": "channels_first"}, "name": "945_pad", "inbound_nodes": [[["944", 0, 0, {}]]]}, {"class_name": "MaxPooling2D", "config": {"name": "945", "trainable": true, "dtype": "float32", "pool_size": [2, 2], "padding": "valid", "strides": [2, 2], "data_format": "channels_first"}, "name": "945", "inbound_nodes": [[["945_pad", 0, 0, {}]]]}, {"class_name": "ZeroPadding2D", "config": {"name": "1938_pad", "trainable": true, "dtype": "float32", "padding": [[1, 1], [1, 1]], "data_format": "channels_first"}, "name": "1938_pad", "inbound_nodes": [[["945", 0, 0, {}]]]}, {"class_name": "Conv2D", "config": {"name": "1938", "trainable": true, "dtype": "float32", "filters": 32, "kernel_size": [3, 3], "strides": [1, 1], "padding": "valid", "data_format": "channels_first", "dilation_rate": [1, 1], "activation": "linear", "use_bias": true, "kernel_initializer": {"class_name": "Zeros", "config": {}}, "bias_initializer": {"class_name": "Zeros", "config": {}}, "kernel_regularizer": null, "bias_regularizer": null, "activity_regularizer": null, "kernel_constraint": null, "bias_constraint": null}, "name": "1938", "inbound_nodes": [[["1938_pad", 0, 0, {}]]]}, {"class_name": "Activation", "config": {"name": "948", "trainable": true, "dtype": "float32", "activation": "relu"}, "name": "948", "inbound_nodes": [[["1938", 0, 0, {}]]]}, {"class_name": "ZeroPadding2D", "config": {"name": "949_pad", "trainable": true, "dtype": "float32", "padding": [[0, 1], [0, 1]], "data_format": "channels_first"}, "name": "949_pad", "inbound_nodes": [[["948", 0, 0, {}]]]}, {"class_name": "MaxPooling2D", "config": {"name": "949", "trainable": true, "dtype": "float32", "pool_size": [2, 2], "padding": "valid", "strides": [2, 2], "data_format": "channels_first"}, "name": "949", "inbound_nodes": [[["949_pad", 0, 0, {}]]]}, {"class_name": "ZeroPadding2D", "config": {"name": "1941_pad", "trainable": true, "dtype": "float32", "padding": [[1, 1], [1, 1]], "data_format": "channels_first"}, "name": "1941_pad", "inbound_nodes": [[["949", 0, 0, {}]]]}, {"class_name": "Conv2D", "config": {"name": "1941", "trainable": true, "dtype": "float32", "filters": 32, "kernel_size": [3, 3], "strides": [1, 1], "padding": "valid", "data_format": "channels_first", "dilation_rate": [1, 1], "activation": "linear", "use_bias": true, "kernel_initializer": {"class_name": "Zeros", "config": {}}, "bias_initializer": {"class_name": "Zeros", "config": {}}, "kernel_regularizer": null, "bias_regularizer": null, "activity_regularizer": null, "kernel_constraint": null, "bias_constraint": null}, "name": "1941", "inbound_nodes": [[["1941_pad", 0, 0, {}]]]}, {"class_name": "Activation", "config": {"name": "952", "trainable": true, "dtype": "float32", "activation": "relu"}, "name": "952", "inbound_nodes": [[["1941", 0, 0, {}]]]}, {"class_name": "ZeroPadding2D", "config": {"name": "953_pad", "trainable": true, "dtype": "float32", "padding": [[0, 1], [0, 1]], "data_format": "channels_first"}, "name": "953_pad", "inbound_nodes": [[["952", 0, 0, {}]]]}, {"class_name": "MaxPooling2D", "config": {"name": "953", "trainable": true, "dtype": "float32", "pool_size": [2, 2], "padding": "valid", "strides": [2, 2], "data_format": "channels_first"}, "name": "953", "inbound_nodes": [[["953_pad", 0, 0, {}]]]}, {"class_name": "ZeroPadding2D", "config": {"name": "1944_pad", "trainable": true, "dtype": "float32", "padding": [[1, 1], [1, 1]], "data_format": "channels_first"}, "name": "1944_pad", "inbound_nodes": [[["953", 0, 0, {}]]]}, {"class_name": "Conv2D", "config": {"name": "1944", "trainable": true, "dtype": "float32", "filters": 32, "kernel_size": [3, 3], "strides": [1, 1], "padding": "valid", "data_format": "channels_first", "dilation_rate": [1, 1], "activation": "linear", "use_bias": true, "kernel_initializer": {"class_name": "Zeros", "config": {}}, "bias_initializer": {"class_name": "Zeros", "config": {}}, "kernel_regularizer": null, "bias_regularizer": null, "activity_regularizer": null, "kernel_constraint": null, "bias_constraint": null}, "name": "1944", "inbound_nodes": [[["1944_pad", 0, 0, {}]]]}, {"class_name": "Activation", "config": {"name": "956", "trainable": true, "dtype": "float32", "activation": "relu"}, "name": "956", "inbound_nodes": [[["1944", 0, 0, {}]]]}, {"class_name": "ZeroPadding2D", "config": {"name": "957_pad", "trainable": true, "dtype": "float32", "padding": [[0, 1], [0, 1]], "data_format": "channels_first"}, "name": "957_pad", "inbound_nodes": [[["956", 0, 0, {}]]]}, {"class_name": "MaxPooling2D", "config": {"name": "957", "trainable": true, "dtype": "float32", "pool_size": [2, 2], "padding": "valid", "strides": [2, 2], "data_format": "channels_first"}, "name": "957", "inbound_nodes": [[["957_pad", 0, 0, {}]]]}, {"class_name": "ZeroPadding2D", "config": {"name": "1947_pad", "trainable": true, "dtype": "float32", "padding": [[1, 1], [1, 1]], "data_format": "channels_first"}, "name": "1947_pad", "inbound_nodes": [[["957", 0, 0, {}]]]}, {"class_name": "Conv2D", "config": {"name": "1947", "trainable": true, "dtype": "float32", "filters": 32, "kernel_size": [3, 3], "strides": [1, 1], "padding": "valid", "data_format": "channels_first", "dilation_rate": [1, 1], "activation": "linear", "use_bias": true, "kernel_initializer": {"class_name": "Zeros", "config": {}}, "bias_initializer": {"class_name": "Zeros", "config": {}}, "kernel_regularizer": null, "bias_regularizer": null, "activity_regularizer": null, "kernel_constraint": null, "bias_constraint": null}, "name": "1947", "inbound_nodes": [[["1947_pad", 0, 0, {}]]]}, {"class_name": "Activation", "config": {"name": "960", "trainable": true, "dtype": "float32", "activation": "relu"}, "name": "960", "inbound_nodes": [[["1947", 0, 0, {}]]]}, {"class_name": "ZeroPadding2D", "config": {"name": "1950_pad", "trainable": true, "dtype": "float32", "padding": [[2, 2], [2, 2]], "data_format": "channels_first"}, "name": "1950_pad", "inbound_nodes": [[["960", 0, 0, {}]]]}, {"class_name": "Conv2D", "config": {"name": "1950", "trainable": true, "dtype": "float32", "filters": 32, "kernel_size": [3, 3], "strides": [1, 1], "padding": "valid", "data_format": "channels_first", "dilation_rate": [2, 2], "activation": "linear", "use_bias": true, "kernel_initializer": {"class_name": "Zeros", "config": {}}, "bias_initializer": {"class_name": "Zeros", "config": {}}, "kernel_regularizer": null, "bias_regularizer": null, "activity_regularizer": null, "kernel_constraint": null, "bias_constraint": null}, "name": "1950", "inbound_nodes": [[["1950_pad", 0, 0, {}]]]}, {"class_name": "Activation", "config": {"name": "963", "trainable": true, "dtype": "float32", "activation": "relu"}, "name": "963", "inbound_nodes": [[["1950", 0, 0, {}]]]}, {"class_name": "Concatenate", "config": {"name": "964", "trainable": true, "dtype": "float32", "axis": 1}, "name": "964", "inbound_nodes": [[["963", 0, 0, {}], ["960", 0, 0, {}]]]}, {"class_name": "ZeroPadding2D", "config": {"name": "1953_pad", "trainable": true, "dtype": "float32", "padding": [[1, 1], [1, 1]], "data_format": "channels_first"}, "name": "1953_pad", "inbound_nodes": [[["964", 0, 0, {}]]]}, {"class_name": "Conv2D", "config": {"name": "1953", "trainable": true, "dtype": "float32", "filters": 32, "kernel_size": [3, 3], "strides": [1, 1], "padding": "valid", "data_format": "channels_first", "dilation_rate": [1, 1], "activation": "linear", "use_bias": true, "kernel_initializer": {"class_name": "Zeros", "config": {}}, "bias_initializer": {"class_name": "Zeros", "config": {}}, "kernel_regularizer": null, "bias_regularizer": null, "activity_regularizer": null, "kernel_constraint": null, "bias_constraint": null}, "name": "1953", "inbound_nodes": [[["1953_pad", 0, 0, {}]]]}, {"class_name": "Activation", "config": {"name": "967", "trainable": true, "dtype": "float32", "activation": "relu"}, "name": "967", "inbound_nodes": [[["1953", 0, 0, {}]]]}, {"class_name": "UpSampling2D", "config": {"name": "984", "trainable": true, "dtype": "float32", "size": [2, 2], "data_format": "channels_first", "interpolation": "nearest"}, "name": "984", "inbound_nodes": [[["967", 0, 0, {}]]]}, {"class_name": "Concatenate", "config": {"name": "985", "trainable": true, "dtype": "float32", "axis": 1}, "name": "985", "inbound_nodes": [[["984", 0, 0, {}], ["956", 0, 0, {}]]]}, {"class_name": "ZeroPadding2D", "config": {"name": "1956_pad", "trainable": true, "dtype": "float32", "padding": [[1, 1], [1, 1]], "data_format": "channels_first"}, "name": "1956_pad", "inbound_nodes": [[["985", 0, 0, {}]]]}, {"class_name": "Conv2D", "config": {"name": "1956", "trainable": true, "dtype": "float32", "filters": 32, "kernel_size": [3, 3], "strides": [1, 1], "padding": "valid", "data_format": "channels_first", "dilation_rate": [1, 1], "activation": "linear", "use_bias": true, "kernel_initializer": {"class_name": "Zeros", "config": {}}, "bias_initializer": {"class_name": "Zeros", "config": {}}, "kernel_regularizer": null, "bias_regularizer": null, "activity_regularizer": null, "kernel_constraint": null, "bias_constraint": null}, "name": "1956", "inbound_nodes": [[["1956_pad", 0, 0, {}]]]}, {"class_name": "Activation", "config": {"name": "988", "trainable": true, "dtype": "float32", "activation": "relu"}, "name": "988", "inbound_nodes": [[["1956", 0, 0, {}]]]}, {"class_name": "UpSampling2D", "config": {"name": "1005", "trainable": true, "dtype": "float32", "size": [2, 2], "data_format": "channels_first", "interpolation": "nearest"}, "name": "1005", "inbound_nodes": [[["988", 0, 0, {}]]]}, {"class_name": "Concatenate", "config": {"name": "1006", "trainable": true, "dtype": "float32", "axis": 1}, "name": "1006", "inbound_nodes": [[["1005", 0, 0, {}], ["952", 0, 0, {}]]]}, {"class_name": "ZeroPadding2D", "config": {"name": "1959_pad", "trainable": true, "dtype": "float32", "padding": [[1, 1], [1, 1]], "data_format": "channels_first"}, "name": "1959_pad", "inbound_nodes": [[["1006", 0, 0, {}]]]}, {"class_name": "Conv2D", "config": {"name": "1959", "trainable": true, "dtype": "float32", "filters": 32, "kernel_size": [3, 3], "strides": [1, 1], "padding": "valid", "data_format": "channels_first", "dilation_rate": [1, 1], "activation": "linear", "use_bias": true, "kernel_initializer": {"class_name": "Zeros", "config": {}}, "bias_initializer": {"class_name": "Zeros", "config": {}}, "kernel_regularizer": null, "bias_regularizer": null, "activity_regularizer": null, "kernel_constraint": null, "bias_constraint": null}, "name": "1959", "inbound_nodes": [[["1959_pad", 0, 0, {}]]]}, {"class_name": "Activation", "config": {"name": "1009", "trainable": true, "dtype": "float32", "activation": "relu"}, "name": "1009", "inbound_nodes": [[["1959", 0, 0, {}]]]}, {"class_name": "UpSampling2D", "config": {"name": "1026", "trainable": true, "dtype": "float32", "size": [2, 2], "data_format": "channels_first", "interpolation": "nearest"}, "name": "1026", "inbound_nodes": [[["1009", 0, 0, {}]]]}, {"class_name": "Concatenate", "config": {"name": "1027", "trainable": true, "dtype": "float32", "axis": 1}, "name": "1027", "inbound_nodes": [[["1026", 0, 0, {}], ["948", 0, 0, {}]]]}, {"class_name": "ZeroPadding2D", "config": {"name": "1962_pad", "trainable": true, "dtype": "float32", "padding": [[1, 1], [1, 1]], "data_format": "channels_first"}, "name": "1962_pad", "inbound_nodes": [[["1027", 0, 0, {}]]]}, {"class_name": "Conv2D", "config": {"name": "1962", "trainable": true, "dtype": "float32", "filters": 32, "kernel_size": [3, 3], "strides": [1, 1], "padding": "valid", "data_format": "channels_first", "dilation_rate": [1, 1], "activation": "linear", "use_bias": true, "kernel_initializer": {"class_name": "Zeros", "config": {}}, "bias_initializer": {"class_name": "Zeros", "config": {}}, "kernel_regularizer": null, "bias_regularizer": null, "activity_regularizer": null, "kernel_constraint": null, "bias_constraint": null}, "name": "1962", "inbound_nodes": [[["1962_pad", 0, 0, {}]]]}, {"class_name": "Activation", "config": {"name": "1030", "trainable": true, "dtype": "float32", "activation": "relu"}, "name": "1030", "inbound_nodes": [[["1962", 0, 0, {}]]]}, {"class_name": "UpSampling2D", "config": {"name": "1047", "trainable": true, "dtype": "float32", "size": [2, 2], "data_format": "channels_first", "interpolation": "nearest"}, "name": "1047", "inbound_nodes": [[["1030", 0, 0, {}]]]}, {"class_name": "Concatenate", "config": {"name": "1048", "trainable": true, "dtype": "float32", "axis": 1}, "name": "1048", "inbound_nodes": [[["1047", 0, 0, {}], ["944", 0, 0, {}]]]}, {"class_name": "ZeroPadding2D", "config": {"name": "1965_pad", "trainable": true, "dtype": "float32", "padding": [[1, 1], [1, 1]], "data_format": "channels_first"}, "name": "1965_pad", "inbound_nodes": [[["1048", 0, 0, {}]]]}, {"class_name": "Conv2D", "config": {"name": "1965", "trainable": true, "dtype": "float32", "filters": 128, "kernel_size": [3, 3], "strides": [1, 1], "padding": "valid", "data_format": "channels_first", "dilation_rate": [1, 1], "activation": "linear", "use_bias": true, "kernel_initializer": {"class_name": "Zeros", "config": {}}, "bias_initializer": {"class_name": "Zeros", "config": {}}, "kernel_regularizer": null, "bias_regularizer": null, "activity_regularizer": null, "kernel_constraint": null, "bias_constraint": null}, "name": "1965", "inbound_nodes": [[["1965_pad", 0, 0, {}]]]}, {"class_name": "Activation", "config": {"name": "1051", "trainable": true, "dtype": "float32", "activation": "relu"}, "name": "1051", "inbound_nodes": [[["1965", 0, 0, {}]]]}, {"class_name": "Add", "config": {"name": "1052", "trainable": true, "dtype": "float32"}, "name": "1052", "inbound_nodes": [[["1051", 0, 0, {}], ["941", 0, 0, {}]]]}, {"class_name": "ZeroPadding2D", "config": {"name": "1053_pad", "trainable": true, "dtype": "float32", "padding": [[0, 1], [0, 1]], "data_format": "channels_first"}, "name": "1053_pad", "inbound_nodes": [[["1052", 0, 0, {}]]]}, {"class_name": "MaxPooling2D", "config": {"name": "1053", "trainable": true, "dtype": "float32", "pool_size": [2, 2], "padding": "valid", "strides": [2, 2], "data_format": "channels_first"}, "name": "1053", "inbound_nodes": [[["1053_pad", 0, 0, {}]]]}, {"class_name": "ZeroPadding2D", "config": {"name": "1968_pad", "trainable": true, "dtype": "float32", "padding": [[1, 1], [1, 1]], "data_format": "channels_first"}, "name": "1968_pad", "inbound_nodes": [[["1053", 0, 0, {}]]]}, {"class_name": "Conv2D", "config": {"name": "1968", "trainable": true, "dtype": "float32", "filters": 256, "kernel_size": [3, 3], "strides": [1, 1], "padding": "valid", "data_format": "channels_first", "dilation_rate": [1, 1], "activation": "linear", "use_bias": true, "kernel_initializer": {"class_name": "Zeros", "config": {}}, "bias_initializer": {"class_name": "Zeros", "config": {}}, "kernel_regularizer": null, "bias_regularizer": null, "activity_regularizer": null, "kernel_constraint": null, "bias_constraint": null}, "name": "1968", "inbound_nodes": [[["1968_pad", 0, 0, {}]]]}, {"class_name": "Activation", "config": {"name": "1056", "trainable": true, "dtype": "float32", "activation": "relu"}, "name": "1056", "inbound_nodes": [[["1968", 0, 0, {}]]]}, {"class_name": "ZeroPadding2D", "config": {"name": "1971_pad", "trainable": true, "dtype": "float32", "padding": [[1, 1], [1, 1]], "data_format": "channels_first"}, "name": "1971_pad", "inbound_nodes": [[["1056", 0, 0, {}]]]}, {"class_name": "Conv2D", "config": {"name": "1971", "trainable": true, "dtype": "float32", "filters": 64, "kernel_size": [3, 3], "strides": [1, 1], "padding": "valid", "data_format": "channels_first", "dilation_rate": [1, 1], "activation": "linear", "use_bias": true, "kernel_initializer": {"class_name": "Zeros", "config": {}}, "bias_initializer": {"class_name": "Zeros", "config": {}}, "kernel_regularizer": null, "bias_regularizer": null, "activity_regularizer": null, "kernel_constraint": null, "bias_constraint": null}, "name": "1971", "inbound_nodes": [[["1971_pad", 0, 0, {}]]]}, {"class_name": "Activation", "config": {"name": "1059", "trainable": true, "dtype": "float32", "activation": "relu"}, "name": "1059", "inbound_nodes": [[["1971", 0, 0, {}]]]}, {"class_name": "ZeroPadding2D", "config": {"name": "1060_pad", "trainable": true, "dtype": "float32", "padding": [[0, 1], [0, 1]], "data_format": "channels_first"}, "name": "1060_pad", "inbound_nodes": [[["1059", 0, 0, {}]]]}, {"class_name": "MaxPooling2D", "config": {"name": "1060", "trainable": true, "dtype": "float32", "pool_size": [2, 2], "padding": "valid", "strides": [2, 2], "data_format": "channels_first"}, "name": "1060", "inbound_nodes": [[["1060_pad", 0, 0, {}]]]}, {"class_name": "ZeroPadding2D", "config": {"name": "1974_pad", "trainable": true, "dtype": "float32", "padding": [[1, 1], [1, 1]], "data_format": "channels_first"}, "name": "1974_pad", "inbound_nodes": [[["1060", 0, 0, {}]]]}, {"class_name": "Conv2D", "config": {"name": "1974", "trainable": true, "dtype": "float32", "filters": 64, "kernel_size": [3, 3], "strides": [1, 1], "padding": "valid", "data_format": "channels_first", "dilation_rate": [1, 1], "activation": "linear", "use_bias": true, "kernel_initializer": {"class_name": "Zeros", "config": {}}, "bias_initializer": {"class_name": "Zeros", "config": {}}, "kernel_regularizer": null, "bias_regularizer": null, "activity_regularizer": null, "kernel_constraint": null, "bias_constraint": null}, "name": "1974", "inbound_nodes": [[["1974_pad", 0, 0, {}]]]}, {"class_name": "Activation", "config": {"name": "1063", "trainable": true, "dtype": "float32", "activation": "relu"}, "name": "1063", "inbound_nodes": [[["1974", 0, 0, {}]]]}, {"class_name": "ZeroPadding2D", "config": {"name": "1064_pad", "trainable": true, "dtype": "float32", "padding": [[0, 1], [0, 1]], "data_format": "channels_first"}, "name": "1064_pad", "inbound_nodes": [[["1063", 0, 0, {}]]]}, {"class_name": "MaxPooling2D", "config": {"name": "1064", "trainable": true, "dtype": "float32", "pool_size": [2, 2], "padding": "valid", "strides": [2, 2], "data_format": "channels_first"}, "name": "1064", "inbound_nodes": [[["1064_pad", 0, 0, {}]]]}, {"class_name": "ZeroPadding2D", "config": {"name": "1977_pad", "trainable": true, "dtype": "float32", "padding": [[1, 1], [1, 1]], "data_format": "channels_first"}, "name": "1977_pad", "inbound_nodes": [[["1064", 0, 0, {}]]]}, {"class_name": "Conv2D", "config": {"name": "1977", "trainable": true, "dtype": "float32", "filters": 64, "kernel_size": [3, 3], "strides": [1, 1], "padding": "valid", "data_format": "channels_first", "dilation_rate": [1, 1], "activation": "linear", "use_bias": true, "kernel_initializer": {"class_name": "Zeros", "config": {}}, "bias_initializer": {"class_name": "Zeros", "config": {}}, "kernel_regularizer": null, "bias_regularizer": null, "activity_regularizer": null, "kernel_constraint": null, "bias_constraint": null}, "name": "1977", "inbound_nodes": [[["1977_pad", 0, 0, {}]]]}, {"class_name": "Activation", "config": {"name": "1067", "trainable": true, "dtype": "float32", "activation": "relu"}, "name": "1067", "inbound_nodes": [[["1977", 0, 0, {}]]]}, {"class_name": "ZeroPadding2D", "config": {"name": "1068_pad", "trainable": true, "dtype": "float32", "padding": [[0, 1], [0, 1]], "data_format": "channels_first"}, "name": "1068_pad", "inbound_nodes": [[["1067", 0, 0, {}]]]}, {"class_name": "MaxPooling2D", "config": {"name": "1068", "trainable": true, "dtype": "float32", "pool_size": [2, 2], "padding": "valid", "strides": [2, 2], "data_format": "channels_first"}, "name": "1068", "inbound_nodes": [[["1068_pad", 0, 0, {}]]]}, {"class_name": "ZeroPadding2D", "config": {"name": "1980_pad", "trainable": true, "dtype": "float32", "padding": [[1, 1], [1, 1]], "data_format": "channels_first"}, "name": "1980_pad", "inbound_nodes": [[["1068", 0, 0, {}]]]}, {"class_name": "Conv2D", "config": {"name": "1980", "trainable": true, "dtype": "float32", "filters": 64, "kernel_size": [3, 3], "strides": [1, 1], "padding": "valid", "data_format": "channels_first", "dilation_rate": [1, 1], "activation": "linear", "use_bias": true, "kernel_initializer": {"class_name": "Zeros", "config": {}}, "bias_initializer": {"class_name": "Zeros", "config": {}}, "kernel_regularizer": null, "bias_regularizer": null, "activity_regularizer": null, "kernel_constraint": null, "bias_constraint": null}, "name": "1980", "inbound_nodes": [[["1980_pad", 0, 0, {}]]]}, {"class_name": "Activation", "config": {"name": "1071", "trainable": true, "dtype": "float32", "activation": "relu"}, "name": "1071", "inbound_nodes": [[["1980", 0, 0, {}]]]}, {"class_name": "ZeroPadding2D", "config": {"name": "1983_pad", "trainable": true, "dtype": "float32", "padding": [[2, 2], [2, 2]], "data_format": "channels_first"}, "name": "1983_pad", "inbound_nodes": [[["1071", 0, 0, {}]]]}, {"class_name": "Conv2D", "config": {"name": "1983", "trainable": true, "dtype": "float32", "filters": 64, "kernel_size": [3, 3], "strides": [1, 1], "padding": "valid", "data_format": "channels_first", "dilation_rate": [2, 2], "activation": "linear", "use_bias": true, "kernel_initializer": {"class_name": "Zeros", "config": {}}, "bias_initializer": {"class_name": "Zeros", "config": {}}, "kernel_regularizer": null, "bias_regularizer": null, "activity_regularizer": null, "kernel_constraint": null, "bias_constraint": null}, "name": "1983", "inbound_nodes": [[["1983_pad", 0, 0, {}]]]}, {"class_name": "Activation", "config": {"name": "1074", "trainable": true, "dtype": "float32", "activation": "relu"}, "name": "1074", "inbound_nodes": [[["1983", 0, 0, {}]]]}, {"class_name": "Concatenate", "config": {"name": "1075", "trainable": true, "dtype": "float32", "axis": 1}, "name": "1075", "inbound_nodes": [[["1074", 0, 0, {}], ["1071", 0, 0, {}]]]}, {"class_name": "ZeroPadding2D", "config": {"name": "1986_pad", "trainable": true, "dtype": "float32", "padding": [[1, 1], [1, 1]], "data_format": "channels_first"}, "name": "1986_pad", "inbound_nodes": [[["1075", 0, 0, {}]]]}, {"class_name": "Conv2D", "config": {"name": "1986", "trainable": true, "dtype": "float32", "filters": 64, "kernel_size": [3, 3], "strides": [1, 1], "padding": "valid", "data_format": "channels_first", "dilation_rate": [1, 1], "activation": "linear", "use_bias": true, "kernel_initializer": {"class_name": "Zeros", "config": {}}, "bias_initializer": {"class_name": "Zeros", "config": {}}, "kernel_regularizer": null, "bias_regularizer": null, "activity_regularizer": null, "kernel_constraint": null, "bias_constraint": null}, "name": "1986", "inbound_nodes": [[["1986_pad", 0, 0, {}]]]}, {"class_name": "Activation", "config": {"name": "1078", "trainable": true, "dtype": "float32", "activation": "relu"}, "name": "1078", "inbound_nodes": [[["1986", 0, 0, {}]]]}, {"class_name": "UpSampling2D", "config": {"name": "1095", "trainable": true, "dtype": "float32", "size": [2, 2], "data_format": "channels_first", "interpolation": "nearest"}, "name": "1095", "inbound_nodes": [[["1078", 0, 0, {}]]]}, {"class_name": "Concatenate", "config": {"name": "1096", "trainable": true, "dtype": "float32", "axis": 1}, "name": "1096", "inbound_nodes": [[["1095", 0, 0, {}], ["1067", 0, 0, {}]]]}, {"class_name": "ZeroPadding2D", "config": {"name": "1989_pad", "trainable": true, "dtype": "float32", "padding": [[1, 1], [1, 1]], "data_format": "channels_first"}, "name": "1989_pad", "inbound_nodes": [[["1096", 0, 0, {}]]]}, {"class_name": "Conv2D", "config": {"name": "1989", "trainable": true, "dtype": "float32", "filters": 64, "kernel_size": [3, 3], "strides": [1, 1], "padding": "valid", "data_format": "channels_first", "dilation_rate": [1, 1], "activation": "linear", "use_bias": true, "kernel_initializer": {"class_name": "Zeros", "config": {}}, "bias_initializer": {"class_name": "Zeros", "config": {}}, "kernel_regularizer": null, "bias_regularizer": null, "activity_regularizer": null, "kernel_constraint": null, "bias_constraint": null}, "name": "1989", "inbound_nodes": [[["1989_pad", 0, 0, {}]]]}, {"class_name": "Activation", "config": {"name": "1099", "trainable": true, "dtype": "float32", "activation": "relu"}, "name": "1099", "inbound_nodes": [[["1989", 0, 0, {}]]]}, {"class_name": "UpSampling2D", "config": {"name": "1116", "trainable": true, "dtype": "float32", "size": [2, 2], "data_format": "channels_first", "interpolation": "nearest"}, "name": "1116", "inbound_nodes": [[["1099", 0, 0, {}]]]}, {"class_name": "Concatenate", "config": {"name": "1117", "trainable": true, "dtype": "float32", "axis": 1}, "name": "1117", "inbound_nodes": [[["1116", 0, 0, {}], ["1063", 0, 0, {}]]]}, {"class_name": "ZeroPadding2D", "config": {"name": "1992_pad", "trainable": true, "dtype": "float32", "padding": [[1, 1], [1, 1]], "data_format": "channels_first"}, "name": "1992_pad", "inbound_nodes": [[["1117", 0, 0, {}]]]}, {"class_name": "Conv2D", "config": {"name": "1992", "trainable": true, "dtype": "float32", "filters": 64, "kernel_size": [3, 3], "strides": [1, 1], "padding": "valid", "data_format": "channels_first", "dilation_rate": [1, 1], "activation": "linear", "use_bias": true, "kernel_initializer": {"class_name": "Zeros", "config": {}}, "bias_initializer": {"class_name": "Zeros", "config": {}}, "kernel_regularizer": null, "bias_regularizer": null, "activity_regularizer": null, "kernel_constraint": null, "bias_constraint": null}, "name": "1992", "inbound_nodes": [[["1992_pad", 0, 0, {}]]]}, {"class_name": "Activation", "config": {"name": "1120", "trainable": true, "dtype": "float32", "activation": "relu"}, "name": "1120", "inbound_nodes": [[["1992", 0, 0, {}]]]}, {"class_name": "UpSampling2D", "config": {"name": "1137", "trainable": true, "dtype": "float32", "size": [2, 2], "data_format": "channels_first", "interpolation": "nearest"}, "name": "1137", "inbound_nodes": [[["1120", 0, 0, {}]]]}, {"class_name": "Concatenate", "config": {"name": "1138", "trainable": true, "dtype": "float32", "axis": 1}, "name": "1138", "inbound_nodes": [[["1137", 0, 0, {}], ["1059", 0, 0, {}]]]}, {"class_name": "ZeroPadding2D", "config": {"name": "1995_pad", "trainable": true, "dtype": "float32", "padding": [[1, 1], [1, 1]], "data_format": "channels_first"}, "name": "1995_pad", "inbound_nodes": [[["1138", 0, 0, {}]]]}, {"class_name": "Conv2D", "config": {"name": "1995", "trainable": true, "dtype": "float32", "filters": 256, "kernel_size": [3, 3], "strides": [1, 1], "padding": "valid", "data_format": "channels_first", "dilation_rate": [1, 1], "activation": "linear", "use_bias": true, "kernel_initializer": {"class_name": "Zeros", "config": {}}, "bias_initializer": {"class_name": "Zeros", "config": {}}, "kernel_regularizer": null, "bias_regularizer": null, "activity_regularizer": null, "kernel_constraint": null, "bias_constraint": null}, "name": "1995", "inbound_nodes": [[["1995_pad", 0, 0, {}]]]}, {"class_name": "Activation", "config": {"name": "1141", "trainable": true, "dtype": "float32", "activation": "relu"}, "name": "1141", "inbound_nodes": [[["1995", 0, 0, {}]]]}, {"class_name": "Add", "config": {"name": "1142", "trainable": true, "dtype": "float32"}, "name": "1142", "inbound_nodes": [[["1141", 0, 0, {}], ["1056", 0, 0, {}]]]}, {"class_name": "ZeroPadding2D", "config": {"name": "1143_pad", "trainable": true, "dtype": "float32", "padding": [[0, 1], [0, 1]], "data_format": "channels_first"}, "name": "1143_pad", "inbound_nodes": [[["1142", 0, 0, {}]]]}, {"class_name": "MaxPooling2D", "config": {"name": "1143", "trainable": true, "dtype": "float32", "pool_size": [2, 2], "padding": "valid", "strides": [2, 2], "data_format": "channels_first"}, "name": "1143", "inbound_nodes": [[["1143_pad", 0, 0, {}]]]}, {"class_name": "ZeroPadding2D", "config": {"name": "1998_pad", "trainable": true, "dtype": "float32", "padding": [[1, 1], [1, 1]], "data_format": "channels_first"}, "name": "1998_pad", "inbound_nodes": [[["1143", 0, 0, {}]]]}, {"class_name": "Conv2D", "config": {"name": "1998", "trainable": true, "dtype": "float32", "filters": 512, "kernel_size": [3, 3], "strides": [1, 1], "padding": "valid", "data_format": "channels_first", "dilation_rate": [1, 1], "activation": "linear", "use_bias": true, "kernel_initializer": {"class_name": "Zeros", "config": {}}, "bias_initializer": {"class_name": "Zeros", "config": {}}, "kernel_regularizer": null, "bias_regularizer": null, "activity_regularizer": null, "kernel_constraint": null, "bias_constraint": null}, "name": "1998", "inbound_nodes": [[["1998_pad", 0, 0, {}]]]}, {"class_name": "Activation", "config": {"name": "1146", "trainable": true, "dtype": "float32", "activation": "relu"}, "name": "1146", "inbound_nodes": [[["1998", 0, 0, {}]]]}, {"class_name": "ZeroPadding2D", "config": {"name": "2001_pad", "trainable": true, "dtype": "float32", "padding": [[1, 1], [1, 1]], "data_format": "channels_first"}, "name": "2001_pad", "inbound_nodes": [[["1146", 0, 0, {}]]]}, {"class_name": "Conv2D", "config": {"name": "2001", "trainable": true, "dtype": "float32", "filters": 128, "kernel_size": [3, 3], "strides": [1, 1], "padding": "valid", "data_format": "channels_first", "dilation_rate": [1, 1], "activation": "linear", "use_bias": true, "kernel_initializer": {"class_name": "Zeros", "config": {}}, "bias_initializer": {"class_name": "Zeros", "config": {}}, "kernel_regularizer": null, "bias_regularizer": null, "activity_regularizer": null, "kernel_constraint": null, "bias_constraint": null}, "name": "2001", "inbound_nodes": [[["2001_pad", 0, 0, {}]]]}, {"class_name": "Activation", "config": {"name": "1149", "trainable": true, "dtype": "float32", "activation": "relu"}, "name": "1149", "inbound_nodes": [[["2001", 0, 0, {}]]]}, {"class_name": "ZeroPadding2D", "config": {"name": "1150_pad", "trainable": true, "dtype": "float32", "padding": [[0, 1], [0, 1]], "data_format": "channels_first"}, "name": "1150_pad", "inbound_nodes": [[["1149", 0, 0, {}]]]}, {"class_name": "MaxPooling2D", "config": {"name": "1150", "trainable": true, "dtype": "float32", "pool_size": [2, 2], "padding": "valid", "strides": [2, 2], "data_format": "channels_first"}, "name": "1150", "inbound_nodes": [[["1150_pad", 0, 0, {}]]]}, {"class_name": "ZeroPadding2D", "config": {"name": "2004_pad", "trainable": true, "dtype": "float32", "padding": [[1, 1], [1, 1]], "data_format": "channels_first"}, "name": "2004_pad", "inbound_nodes": [[["1150", 0, 0, {}]]]}, {"class_name": "Conv2D", "config": {"name": "2004", "trainable": true, "dtype": "float32", "filters": 128, "kernel_size": [3, 3], "strides": [1, 1], "padding": "valid", "data_format": "channels_first", "dilation_rate": [1, 1], "activation": "linear", "use_bias": true, "kernel_initializer": {"class_name": "Zeros", "config": {}}, "bias_initializer": {"class_name": "Zeros", "config": {}}, "kernel_regularizer": null, "bias_regularizer": null, "activity_regularizer": null, "kernel_constraint": null, "bias_constraint": null}, "name": "2004", "inbound_nodes": [[["2004_pad", 0, 0, {}]]]}, {"class_name": "Activation", "config": {"name": "1153", "trainable": true, "dtype": "float32", "activation": "relu"}, "name": "1153", "inbound_nodes": [[["2004", 0, 0, {}]]]}, {"class_name": "ZeroPadding2D", "config": {"name": "1154_pad", "trainable": true, "dtype": "float32", "padding": [[0, 1], [0, 1]], "data_format": "channels_first"}, "name": "1154_pad", "inbound_nodes": [[["1153", 0, 0, {}]]]}, {"class_name": "MaxPooling2D", "config": {"name": "1154", "trainable": true, "dtype": "float32", "pool_size": [2, 2], "padding": "valid", "strides": [2, 2], "data_format": "channels_first"}, "name": "1154", "inbound_nodes": [[["1154_pad", 0, 0, {}]]]}, {"class_name": "ZeroPadding2D", "config": {"name": "2007_pad", "trainable": true, "dtype": "float32", "padding": [[1, 1], [1, 1]], "data_format": "channels_first"}, "name": "2007_pad", "inbound_nodes": [[["1154", 0, 0, {}]]]}, {"class_name": "Conv2D", "config": {"name": "2007", "trainable": true, "dtype": "float32", "filters": 128, "kernel_size": [3, 3], "strides": [1, 1], "padding": "valid", "data_format": "channels_first", "dilation_rate": [1, 1], "activation": "linear", "use_bias": true, "kernel_initializer": {"class_name": "Zeros", "config": {}}, "bias_initializer": {"class_name": "Zeros", "config": {}}, "kernel_regularizer": null, "bias_regularizer": null, "activity_regularizer": null, "kernel_constraint": null, "bias_constraint": null}, "name": "2007", "inbound_nodes": [[["2007_pad", 0, 0, {}]]]}, {"class_name": "Activation", "config": {"name": "1157", "trainable": true, "dtype": "float32", "activation": "relu"}, "name": "1157", "inbound_nodes": [[["2007", 0, 0, {}]]]}, {"class_name": "ZeroPadding2D", "config": {"name": "2010_pad", "trainable": true, "dtype": "float32", "padding": [[2, 2], [2, 2]], "data_format": "channels_first"}, "name": "2010_pad", "inbound_nodes": [[["1157", 0, 0, {}]]]}, {"class_name": "Conv2D", "config": {"name": "2010", "trainable": true, "dtype": "float32", "filters": 128, "kernel_size": [3, 3], "strides": [1, 1], "padding": "valid", "data_format": "channels_first", "dilation_rate": [2, 2], "activation": "linear", "use_bias": true, "kernel_initializer": {"class_name": "Zeros", "config": {}}, "bias_initializer": {"class_name": "Zeros", "config": {}}, "kernel_regularizer": null, "bias_regularizer": null, "activity_regularizer": null, "kernel_constraint": null, "bias_constraint": null}, "name": "2010", "inbound_nodes": [[["2010_pad", 0, 0, {}]]]}, {"class_name": "Activation", "config": {"name": "1160", "trainable": true, "dtype": "float32", "activation": "relu"}, "name": "1160", "inbound_nodes": [[["2010", 0, 0, {}]]]}, {"class_name": "Concatenate", "config": {"name": "1161", "trainable": true, "dtype": "float32", "axis": 1}, "name": "1161", "inbound_nodes": [[["1160", 0, 0, {}], ["1157", 0, 0, {}]]]}, {"class_name": "ZeroPadding2D", "config": {"name": "2013_pad", "trainable": true, "dtype": "float32", "padding": [[1, 1], [1, 1]], "data_format": "channels_first"}, "name": "2013_pad", "inbound_nodes": [[["1161", 0, 0, {}]]]}, {"class_name": "Conv2D", "config": {"name": "2013", "trainable": true, "dtype": "float32", "filters": 128, "kernel_size": [3, 3], "strides": [1, 1], "padding": "valid", "data_format": "channels_first", "dilation_rate": [1, 1], "activation": "linear", "use_bias": true, "kernel_initializer": {"class_name": "Zeros", "config": {}}, "bias_initializer": {"class_name": "Zeros", "config": {}}, "kernel_regularizer": null, "bias_regularizer": null, "activity_regularizer": null, "kernel_constraint": null, "bias_constraint": null}, "name": "2013", "inbound_nodes": [[["2013_pad", 0, 0, {}]]]}, {"class_name": "Activation", "config": {"name": "1164", "trainable": true, "dtype": "float32", "activation": "relu"}, "name": "1164", "inbound_nodes": [[["2013", 0, 0, {}]]]}, {"class_name": "UpSampling2D", "config": {"name": "1181", "trainable": true, "dtype": "float32", "size": [2, 2], "data_format": "channels_first", "interpolation": "nearest"}, "name": "1181", "inbound_nodes": [[["1164", 0, 0, {}]]]}, {"class_name": "Concatenate", "config": {"name": "1182", "trainable": true, "dtype": "float32", "axis": 1}, "name": "1182", "inbound_nodes": [[["1181", 0, 0, {}], ["1153", 0, 0, {}]]]}, {"class_name": "ZeroPadding2D", "config": {"name": "2016_pad", "trainable": true, "dtype": "float32", "padding": [[1, 1], [1, 1]], "data_format": "channels_first"}, "name": "2016_pad", "inbound_nodes": [[["1182", 0, 0, {}]]]}, {"class_name": "Conv2D", "config": {"name": "2016", "trainable": true, "dtype": "float32", "filters": 128, "kernel_size": [3, 3], "strides": [1, 1], "padding": "valid", "data_format": "channels_first", "dilation_rate": [1, 1], "activation": "linear", "use_bias": true, "kernel_initializer": {"class_name": "Zeros", "config": {}}, "bias_initializer": {"class_name": "Zeros", "config": {}}, "kernel_regularizer": null, "bias_regularizer": null, "activity_regularizer": null, "kernel_constraint": null, "bias_constraint": null}, "name": "2016", "inbound_nodes": [[["2016_pad", 0, 0, {}]]]}, {"class_name": "Activation", "config": {"name": "1185", "trainable": true, "dtype": "float32", "activation": "relu"}, "name": "1185", "inbound_nodes": [[["2016", 0, 0, {}]]]}, {"class_name": "UpSampling2D", "config": {"name": "1202", "trainable": true, "dtype": "float32", "size": [2, 2], "data_format": "channels_first", "interpolation": "nearest"}, "name": "1202", "inbound_nodes": [[["1185", 0, 0, {}]]]}, {"class_name": "Concatenate", "config": {"name": "1203", "trainable": true, "dtype": "float32", "axis": 1}, "name": "1203", "inbound_nodes": [[["1202", 0, 0, {}], ["1149", 0, 0, {}]]]}, {"class_name": "ZeroPadding2D", "config": {"name": "2019_pad", "trainable": true, "dtype": "float32", "padding": [[1, 1], [1, 1]], "data_format": "channels_first"}, "name": "2019_pad", "inbound_nodes": [[["1203", 0, 0, {}]]]}, {"class_name": "Conv2D", "config": {"name": "2019", "trainable": true, "dtype": "float32", "filters": 512, "kernel_size": [3, 3], "strides": [1, 1], "padding": "valid", "data_format": "channels_first", "dilation_rate": [1, 1], "activation": "linear", "use_bias": true, "kernel_initializer": {"class_name": "Zeros", "config": {}}, "bias_initializer": {"class_name": "Zeros", "config": {}}, "kernel_regularizer": null, "bias_regularizer": null, "activity_regularizer": null, "kernel_constraint": null, "bias_constraint": null}, "name": "2019", "inbound_nodes": [[["2019_pad", 0, 0, {}]]]}, {"class_name": "Activation", "config": {"name": "1206", "trainable": true, "dtype": "float32", "activation": "relu"}, "name": "1206", "inbound_nodes": [[["2019", 0, 0, {}]]]}, {"class_name": "Add", "config": {"name": "1207", "trainable": true, "dtype": "float32"}, "name": "1207", "inbound_nodes": [[["1206", 0, 0, {}], ["1146", 0, 0, {}]]]}, {"class_name": "ZeroPadding2D", "config": {"name": "1208_pad", "trainable": true, "dtype": "float32", "padding": [[0, 1], [0, 1]], "data_format": "channels_first"}, "name": "1208_pad", "inbound_nodes": [[["1207", 0, 0, {}]]]}, {"class_name": "MaxPooling2D", "config": {"name": "1208", "trainable": true, "dtype": "float32", "pool_size": [2, 2], "padding": "valid", "strides": [2, 2], "data_format": "channels_first"}, "name": "1208", "inbound_nodes": [[["1208_pad", 0, 0, {}]]]}, {"class_name": "ZeroPadding2D", "config": {"name": "2022_pad", "trainable": true, "dtype": "float32", "padding": [[1, 1], [1, 1]], "data_format": "channels_first"}, "name": "2022_pad", "inbound_nodes": [[["1208", 0, 0, {}]]]}, {"class_name": "Conv2D", "config": {"name": "2022", "trainable": true, "dtype": "float32", "filters": 512, "kernel_size": [3, 3], "strides": [1, 1], "padding": "valid", "data_format": "channels_first", "dilation_rate": [1, 1], "activation": "linear", "use_bias": true, "kernel_initializer": {"class_name": "Zeros", "config": {}}, "bias_initializer": {"class_name": "Zeros", "config": {}}, "kernel_regularizer": null, "bias_regularizer": null, "activity_regularizer": null, "kernel_constraint": null, "bias_constraint": null}, "name": "2022", "inbound_nodes": [[["2022_pad", 0, 0, {}]]]}, {"class_name": "Activation", "config": {"name": "1211", "trainable": true, "dtype": "float32", "activation": "relu"}, "name": "1211", "inbound_nodes": [[["2022", 0, 0, {}]]]}, {"class_name": "ZeroPadding2D", "config": {"name": "2025_pad", "trainable": true, "dtype": "float32", "padding": [[1, 1], [1, 1]], "data_format": "channels_first"}, "name": "2025_pad", "inbound_nodes": [[["1211", 0, 0, {}]]]}, {"class_name": "Conv2D", "config": {"name": "2025", "trainable": true, "dtype": "float32", "filters": 256, "kernel_size": [3, 3], "strides": [1, 1], "padding": "valid", "data_format": "channels_first", "dilation_rate": [1, 1], "activation": "linear", "use_bias": true, "kernel_initializer": {"class_name": "Zeros", "config": {}}, "bias_initializer": {"class_name": "Zeros", "config": {}}, "kernel_regularizer": null, "bias_regularizer": null, "activity_regularizer": null, "kernel_constraint": null, "bias_constraint": null}, "name": "2025", "inbound_nodes": [[["2025_pad", 0, 0, {}]]]}, {"class_name": "Activation", "config": {"name": "1214", "trainable": true, "dtype": "float32", "activation": "relu"}, "name": "1214", "inbound_nodes": [[["2025", 0, 0, {}]]]}, {"class_name": "ZeroPadding2D", "config": {"name": "2028_pad", "trainable": true, "dtype": "float32", "padding": [[2, 2], [2, 2]], "data_format": "channels_first"}, "name": "2028_pad", "inbound_nodes": [[["1214", 0, 0, {}]]]}, {"class_name": "Conv2D", "config": {"name": "2028", "trainable": true, "dtype": "float32", "filters": 256, "kernel_size": [3, 3], "strides": [1, 1], "padding": "valid", "data_format": "channels_first", "dilation_rate": [2, 2], "activation": "linear", "use_bias": true, "kernel_initializer": {"class_name": "Zeros", "config": {}}, "bias_initializer": {"class_name": "Zeros", "config": {}}, "kernel_regularizer": null, "bias_regularizer": null, "activity_regularizer": null, "kernel_constraint": null, "bias_constraint": null}, "name": "2028", "inbound_nodes": [[["2028_pad", 0, 0, {}]]]}, {"class_name": "Activation", "config": {"name": "1217", "trainable": true, "dtype": "float32", "activation": "relu"}, "name": "1217", "inbound_nodes": [[["2028", 0, 0, {}]]]}, {"class_name": "ZeroPadding2D", "config": {"name": "2031_pad", "trainable": true, "dtype": "float32", "padding": [[4, 4], [4, 4]], "data_format": "channels_first"}, "name": "2031_pad", "inbound_nodes": [[["1217", 0, 0, {}]]]}, {"class_name": "Conv2D", "config": {"name": "2031", "trainable": true, "dtype": "float32", "filters": 256, "kernel_size": [3, 3], "strides": [1, 1], "padding": "valid", "data_format": "channels_first", "dilation_rate": [4, 4], "activation": "linear", "use_bias": true, "kernel_initializer": {"class_name": "Zeros", "config": {}}, "bias_initializer": {"class_name": "Zeros", "config": {}}, "kernel_regularizer": null, "bias_regularizer": null, "activity_regularizer": null, "kernel_constraint": null, "bias_constraint": null}, "name": "2031", "inbound_nodes": [[["2031_pad", 0, 0, {}]]]}, {"class_name": "Activation", "config": {"name": "1220", "trainable": true, "dtype": "float32", "activation": "relu"}, "name": "1220", "inbound_nodes": [[["2031", 0, 0, {}]]]}, {"class_name": "ZeroPadding2D", "config": {"name": "2034_pad", "trainable": true, "dtype": "float32", "padding": [[8, 8], [8, 8]], "data_format": "channels_first"}, "name": "2034_pad", "inbound_nodes": [[["1220", 0, 0, {}]]]}, {"class_name": "Conv2D", "config": {"name": "2034", "trainable": true, "dtype": "float32", "filters": 256, "kernel_size": [3, 3], "strides": [1, 1], "padding": "valid", "data_format": "channels_first", "dilation_rate": [8, 8], "activation": "linear", "use_bias": true, "kernel_initializer": {"class_name": "Zeros", "config": {}}, "bias_initializer": {"class_name": "Zeros", "config": {}}, "kernel_regularizer": null, "bias_regularizer": null, "activity_regularizer": null, "kernel_constraint": null, "bias_constraint": null}, "name": "2034", "inbound_nodes": [[["2034_pad", 0, 0, {}]]]}, {"class_name": "Activation", "config": {"name": "1223", "trainable": true, "dtype": "float32", "activation": "relu"}, "name": "1223", "inbound_nodes": [[["2034", 0, 0, {}]]]}, {"class_name": "Concatenate", "config": {"name": "1224", "trainable": true, "dtype": "float32", "axis": 1}, "name": "1224", "inbound_nodes": [[["1223", 0, 0, {}], ["1220", 0, 0, {}]]]}, {"class_name": "ZeroPadding2D", "config": {"name": "2037_pad", "trainable": true, "dtype": "float32", "padding": [[4, 4], [4, 4]], "data_format": "channels_first"}, "name": "2037_pad", "inbound_nodes": [[["1224", 0, 0, {}]]]}, {"class_name": "Conv2D", "config": {"name": "2037", "trainable": true, "dtype": "float32", "filters": 256, "kernel_size": [3, 3], "strides": [1, 1], "padding": "valid", "data_format": "channels_first", "dilation_rate": [4, 4], "activation": "linear", "use_bias": true, "kernel_initializer": {"class_name": "Zeros", "config": {}}, "bias_initializer": {"class_name": "Zeros", "config": {}}, "kernel_regularizer": null, "bias_regularizer": null, "activity_regularizer": null, "kernel_constraint": null, "bias_constraint": null}, "name": "2037", "inbound_nodes": [[["2037_pad", 0, 0, {}]]]}, {"class_name": "Activation", "config": {"name": "1227", "trainable": true, "dtype": "float32", "activation": "relu"}, "name": "1227", "inbound_nodes": [[["2037", 0, 0, {}]]]}, {"class_name": "Concatenate", "config": {"name": "1228", "trainable": true, "dtype": "float32", "axis": 1}, "name": "1228", "inbound_nodes": [[["1227", 0, 0, {}], ["1217", 0, 0, {}]]]}, {"class_name": "ZeroPadding2D", "config": {"name": "2040_pad", "trainable": true, "dtype": "float32", "padding": [[2, 2], [2, 2]], "data_format": "channels_first"}, "name": "2040_pad", "inbound_nodes": [[["1228", 0, 0, {}]]]}, {"class_name": "Conv2D", "config": {"name": "2040", "trainable": true, "dtype": "float32", "filters": 256, "kernel_size": [3, 3], "strides": [1, 1], "padding": "valid", "data_format": "channels_first", "dilation_rate": [2, 2], "activation": "linear", "use_bias": true, "kernel_initializer": {"class_name": "Zeros", "config": {}}, "bias_initializer": {"class_name": "Zeros", "config": {}}, "kernel_regularizer": null, "bias_regularizer": null, "activity_regularizer": null, "kernel_constraint": null, "bias_constraint": null}, "name": "2040", "inbound_nodes": [[["2040_pad", 0, 0, {}]]]}, {"class_name": "Activation", "config": {"name": "1231", "trainable": true, "dtype": "float32", "activation": "relu"}, "name": "1231", "inbound_nodes": [[["2040", 0, 0, {}]]]}, {"class_name": "Concatenate", "config": {"name": "1232", "trainable": true, "dtype": "float32", "axis": 1}, "name": "1232", "inbound_nodes": [[["1231", 0, 0, {}], ["1214", 0, 0, {}]]]}, {"class_name": "ZeroPadding2D", "config": {"name": "2043_pad", "trainable": true, "dtype": "float32", "padding": [[1, 1], [1, 1]], "data_format": "channels_first"}, "name": "2043_pad", "inbound_nodes": [[["1232", 0, 0, {}]]]}, {"class_name": "Conv2D", "config": {"name": "2043", "trainable": true, "dtype": "float32", "filters": 512, "kernel_size": [3, 3], "strides": [1, 1], "padding": "valid", "data_format": "channels_first", "dilation_rate": [1, 1], "activation": "linear", "use_bias": true, "kernel_initializer": {"class_name": "Zeros", "config": {}}, "bias_initializer": {"class_name": "Zeros", "config": {}}, "kernel_regularizer": null, "bias_regularizer": null, "activity_regularizer": null, "kernel_constraint": null, "bias_constraint": null}, "name": "2043", "inbound_nodes": [[["2043_pad", 0, 0, {}]]]}, {"class_name": "Activation", "config": {"name": "1235", "trainable": true, "dtype": "float32", "activation": "relu"}, "name": "1235", "inbound_nodes": [[["2043", 0, 0, {}]]]}, {"class_name": "Add", "config": {"name": "1236", "trainable": true, "dtype": "float32"}, "name": "1236", "inbound_nodes": [[["1235", 0, 0, {}], ["1211", 0, 0, {}]]]}, {"class_name": "ZeroPadding2D", "config": {"name": "1237_pad", "trainable": true, "dtype": "float32", "padding": [[0, 1], [0, 1]], "data_format": "channels_first"}, "name": "1237_pad", "inbound_nodes": [[["1236", 0, 0, {}]]]}, {"class_name": "MaxPooling2D", "config": {"name": "1237", "trainable": true, "dtype": "float32", "pool_size": [2, 2], "padding": "valid", "strides": [2, 2], "data_format": "channels_first"}, "name": "1237", "inbound_nodes": [[["1237_pad", 0, 0, {}]]]}, {"class_name": "ZeroPadding2D", "config": {"name": "2046_pad", "trainable": true, "dtype": "float32", "padding": [[1, 1], [1, 1]], "data_format": "channels_first"}, "name": "2046_pad", "inbound_nodes": [[["1237", 0, 0, {}]]]}, {"class_name": "Conv2D", "config": {"name": "2046", "trainable": true, "dtype": "float32", "filters": 512, "kernel_size": [3, 3], "strides": [1, 1], "padding": "valid", "data_format": "channels_first", "dilation_rate": [1, 1], "activation": "linear", "use_bias": true, "kernel_initializer": {"class_name": "Zeros", "config": {}}, "bias_initializer": {"class_name": "Zeros", "config": {}}, "kernel_regularizer": null, "bias_regularizer": null, "activity_regularizer": null, "kernel_constraint": null, "bias_constraint": null}, "name": "2046", "inbound_nodes": [[["2046_pad", 0, 0, {}]]]}, {"class_name": "Activation", "config": {"name": "1240", "trainable": true, "dtype": "float32", "activation": "relu"}, "name": "1240", "inbound_nodes": [[["2046", 0, 0, {}]]]}, {"class_name": "ZeroPadding2D", "config": {"name": "2049_pad", "trainable": true, "dtype": "float32", "padding": [[1, 1], [1, 1]], "data_format": "channels_first"}, "name": "2049_pad", "inbound_nodes": [[["1240", 0, 0, {}]]]}, {"class_name": "Conv2D", "config": {"name": "2049", "trainable": true, "dtype": "float32", "filters": 256, "kernel_size": [3, 3], "strides": [1, 1], "padding": "valid", "data_format": "channels_first", "dilation_rate": [1, 1], "activation": "linear", "use_bias": true, "kernel_initializer": {"class_name": "Zeros", "config": {}}, "bias_initializer": {"class_name": "Zeros", "config": {}}, "kernel_regularizer": null, "bias_regularizer": null, "activity_regularizer": null, "kernel_constraint": null, "bias_constraint": null}, "name": "2049", "inbound_nodes": [[["2049_pad", 0, 0, {}]]]}, {"class_name": "Activation", "config": {"name": "1243", "trainable": true, "dtype": "float32", "activation": "relu"}, "name": "1243", "inbound_nodes": [[["2049", 0, 0, {}]]]}, {"class_name": "ZeroPadding2D", "config": {"name": "2052_pad", "trainable": true, "dtype": "float32", "padding": [[2, 2], [2, 2]], "data_format": "channels_first"}, "name": "2052_pad", "inbound_nodes": [[["1243", 0, 0, {}]]]}, {"class_name": "Conv2D", "config": {"name": "2052", "trainable": true, "dtype": "float32", "filters": 256, "kernel_size": [3, 3], "strides": [1, 1], "padding": "valid", "data_format": "channels_first", "dilation_rate": [2, 2], "activation": "linear", "use_bias": true, "kernel_initializer": {"class_name": "Zeros", "config": {}}, "bias_initializer": {"class_name": "Zeros", "config": {}}, "kernel_regularizer": null, "bias_regularizer": null, "activity_regularizer": null, "kernel_constraint": null, "bias_constraint": null}, "name": "2052", "inbound_nodes": [[["2052_pad", 0, 0, {}]]]}, {"class_name": "Activation", "config": {"name": "1246", "trainable": true, "dtype": "float32", "activation": "relu"}, "name": "1246", "inbound_nodes": [[["2052", 0, 0, {}]]]}, {"class_name": "ZeroPadding2D", "config": {"name": "2055_pad", "trainable": true, "dtype": "float32", "padding": [[4, 4], [4, 4]], "data_format": "channels_first"}, "name": "2055_pad", "inbound_nodes": [[["1246", 0, 0, {}]]]}, {"class_name": "Conv2D", "config": {"name": "2055", "trainable": true, "dtype": "float32", "filters": 256, "kernel_size": [3, 3], "strides": [1, 1], "padding": "valid", "data_format": "channels_first", "dilation_rate": [4, 4], "activation": "linear", "use_bias": true, "kernel_initializer": {"class_name": "Zeros", "config": {}}, "bias_initializer": {"class_name": "Zeros", "config": {}}, "kernel_regularizer": null, "bias_regularizer": null, "activity_regularizer": null, "kernel_constraint": null, "bias_constraint": null}, "name": "2055", "inbound_nodes": [[["2055_pad", 0, 0, {}]]]}, {"class_name": "Activation", "config": {"name": "1249", "trainable": true, "dtype": "float32", "activation": "relu"}, "name": "1249", "inbound_nodes": [[["2055", 0, 0, {}]]]}, {"class_name": "ZeroPadding2D", "config": {"name": "2058_pad", "trainable": true, "dtype": "float32", "padding": [[8, 8], [8, 8]], "data_format": "channels_first"}, "name": "2058_pad", "inbound_nodes": [[["1249", 0, 0, {}]]]}, {"class_name": "Conv2D", "config": {"name": "2058", "trainable": true, "dtype": "float32", "filters": 256, "kernel_size": [3, 3], "strides": [1, 1], "padding": "valid", "data_format": "channels_first", "dilation_rate": [8, 8], "activation": "linear", "use_bias": true, "kernel_initializer": {"class_name": "Zeros", "config": {}}, "bias_initializer": {"class_name": "Zeros", "config": {}}, "kernel_regularizer": null, "bias_regularizer": null, "activity_regularizer": null, "kernel_constraint": null, "bias_constraint": null}, "name": "2058", "inbound_nodes": [[["2058_pad", 0, 0, {}]]]}, {"class_name": "Activation", "config": {"name": "1252", "trainable": true, "dtype": "float32", "activation": "relu"}, "name": "1252", "inbound_nodes": [[["2058", 0, 0, {}]]]}, {"class_name": "Concatenate", "config": {"name": "1253", "trainable": true, "dtype": "float32", "axis": 1}, "name": "1253", "inbound_nodes": [[["1252", 0, 0, {}], ["1249", 0, 0, {}]]]}, {"class_name": "ZeroPadding2D", "config": {"name": "2061_pad", "trainable": true, "dtype": "float32", "padding": [[4, 4], [4, 4]], "data_format": "channels_first"}, "name": "2061_pad", "inbound_nodes": [[["1253", 0, 0, {}]]]}, {"class_name": "Conv2D", "config": {"name": "2061", "trainable": true, "dtype": "float32", "filters": 256, "kernel_size": [3, 3], "strides": [1, 1], "padding": "valid", "data_format": "channels_first", "dilation_rate": [4, 4], "activation": "linear", "use_bias": true, "kernel_initializer": {"class_name": "Zeros", "config": {}}, "bias_initializer": {"class_name": "Zeros", "config": {}}, "kernel_regularizer": null, "bias_regularizer": null, "activity_regularizer": null, "kernel_constraint": null, "bias_constraint": null}, "name": "2061", "inbound_nodes": [[["2061_pad", 0, 0, {}]]]}, {"class_name": "Activation", "config": {"name": "1256", "trainable": true, "dtype": "float32", "activation": "relu"}, "name": "1256", "inbound_nodes": [[["2061", 0, 0, {}]]]}, {"class_name": "Concatenate", "config": {"name": "1257", "trainable": true, "dtype": "float32", "axis": 1}, "name": "1257", "inbound_nodes": [[["1256", 0, 0, {}], ["1246", 0, 0, {}]]]}, {"class_name": "ZeroPadding2D", "config": {"name": "2064_pad", "trainable": true, "dtype": "float32", "padding": [[2, 2], [2, 2]], "data_format": "channels_first"}, "name": "2064_pad", "inbound_nodes": [[["1257", 0, 0, {}]]]}, {"class_name": "Conv2D", "config": {"name": "2064", "trainable": true, "dtype": "float32", "filters": 256, "kernel_size": [3, 3], "strides": [1, 1], "padding": "valid", "data_format": "channels_first", "dilation_rate": [2, 2], "activation": "linear", "use_bias": true, "kernel_initializer": {"class_name": "Zeros", "config": {}}, "bias_initializer": {"class_name": "Zeros", "config": {}}, "kernel_regularizer": null, "bias_regularizer": null, "activity_regularizer": null, "kernel_constraint": null, "bias_constraint": null}, "name": "2064", "inbound_nodes": [[["2064_pad", 0, 0, {}]]]}, {"class_name": "Activation", "config": {"name": "1260", "trainable": true, "dtype": "float32", "activation": "relu"}, "name": "1260", "inbound_nodes": [[["2064", 0, 0, {}]]]}, {"class_name": "Concatenate", "config": {"name": "1261", "trainable": true, "dtype": "float32", "axis": 1}, "name": "1261", "inbound_nodes": [[["1260", 0, 0, {}], ["1243", 0, 0, {}]]]}, {"class_name": "ZeroPadding2D", "config": {"name": "2067_pad", "trainable": true, "dtype": "float32", "padding": [[1, 1], [1, 1]], "data_format": "channels_first"}, "name": "2067_pad", "inbound_nodes": [[["1261", 0, 0, {}]]]}, {"class_name": "Conv2D", "config": {"name": "2067", "trainable": true, "dtype": "float32", "filters": 512, "kernel_size": [3, 3], "strides": [1, 1], "padding": "valid", "data_format": "channels_first", "dilation_rate": [1, 1], "activation": "linear", "use_bias": true, "kernel_initializer": {"class_name": "Zeros", "config": {}}, "bias_initializer": {"class_name": "Zeros", "config": {}}, "kernel_regularizer": null, "bias_regularizer": null, "activity_regularizer": null, "kernel_constraint": null, "bias_constraint": null}, "name": "2067", "inbound_nodes": [[["2067_pad", 0, 0, {}]]]}, {"class_name": "Activation", "config": {"name": "1264", "trainable": true, "dtype": "float32", "activation": "relu"}, "name": "1264", "inbound_nodes": [[["2067", 0, 0, {}]]]}, {"class_name": "Add", "config": {"name": "1265", "trainable": true, "dtype": "float32"}, "name": "1265", "inbound_nodes": [[["1264", 0, 0, {}], ["1240", 0, 0, {}]]]}, {"class_name": "UpSampling2D", "config": {"name": "1282", "trainable": true, "dtype": "float32", "size": [2, 2], "data_format": "channels_first", "interpolation": "nearest"}, "name": "1282", "inbound_nodes": [[["1265", 0, 0, {}]]]}, {"class_name": "Concatenate", "config": {"name": "1283", "trainable": true, "dtype": "float32", "axis": 1}, "name": "1283", "inbound_nodes": [[["1282", 0, 0, {}], ["1236", 0, 0, {}]]]}, {"class_name": "ZeroPadding2D", "config": {"name": "2070_pad", "trainable": true, "dtype": "float32", "padding": [[1, 1], [1, 1]], "data_format": "channels_first"}, "name": "2070_pad", "inbound_nodes": [[["1283", 0, 0, {}]]]}, {"class_name": "Conv2D", "config": {"name": "2070", "trainable": true, "dtype": "float32", "filters": 512, "kernel_size": [3, 3], "strides": [1, 1], "padding": "valid", "data_format": "channels_first", "dilation_rate": [1, 1], "activation": "linear", "use_bias": true, "kernel_initializer": {"class_name": "Zeros", "config": {}}, "bias_initializer": {"class_name": "Zeros", "config": {}}, "kernel_regularizer": null, "bias_regularizer": null, "activity_regularizer": null, "kernel_constraint": null, "bias_constraint": null}, "name": "2070", "inbound_nodes": [[["2070_pad", 0, 0, {}]]]}, {"class_name": "Activation", "config": {"name": "1286", "trainable": true, "dtype": "float32", "activation": "relu"}, "name": "1286", "inbound_nodes": [[["2070", 0, 0, {}]]]}, {"class_name": "ZeroPadding2D", "config": {"name": "2073_pad", "trainable": true, "dtype": "float32", "padding": [[1, 1], [1, 1]], "data_format": "channels_first"}, "name": "2073_pad", "inbound_nodes": [[["1286", 0, 0, {}]]]}, {"class_name": "Conv2D", "config": {"name": "2073", "trainable": true, "dtype": "float32", "filters": 256, "kernel_size": [3, 3], "strides": [1, 1], "padding": "valid", "data_format": "channels_first", "dilation_rate": [1, 1], "activation": "linear", "use_bias": true, "kernel_initializer": {"class_name": "Zeros", "config": {}}, "bias_initializer": {"class_name": "Zeros", "config": {}}, "kernel_regularizer": null, "bias_regularizer": null, "activity_regularizer": null, "kernel_constraint": null, "bias_constraint": null}, "name": "2073", "inbound_nodes": [[["2073_pad", 0, 0, {}]]]}, {"class_name": "Activation", "config": {"name": "1289", "trainable": true, "dtype": "float32", "activation": "relu"}, "name": "1289", "inbound_nodes": [[["2073", 0, 0, {}]]]}, {"class_name": "ZeroPadding2D", "config": {"name": "2076_pad", "trainable": true, "dtype": "float32", "padding": [[2, 2], [2, 2]], "data_format": "channels_first"}, "name": "2076_pad", "inbound_nodes": [[["1289", 0, 0, {}]]]}, {"class_name": "Conv2D", "config": {"name": "2076", "trainable": true, "dtype": "float32", "filters": 256, "kernel_size": [3, 3], "strides": [1, 1], "padding": "valid", "data_format": "channels_first", "dilation_rate": [2, 2], "activation": "linear", "use_bias": true, "kernel_initializer": {"class_name": "Zeros", "config": {}}, "bias_initializer": {"class_name": "Zeros", "config": {}}, "kernel_regularizer": null, "bias_regularizer": null, "activity_regularizer": null, "kernel_constraint": null, "bias_constraint": null}, "name": "2076", "inbound_nodes": [[["2076_pad", 0, 0, {}]]]}, {"class_name": "Activation", "config": {"name": "1292", "trainable": true, "dtype": "float32", "activation": "relu"}, "name": "1292", "inbound_nodes": [[["2076", 0, 0, {}]]]}, {"class_name": "ZeroPadding2D", "config": {"name": "2079_pad", "trainable": true, "dtype": "float32", "padding": [[4, 4], [4, 4]], "data_format": "channels_first"}, "name": "2079_pad", "inbound_nodes": [[["1292", 0, 0, {}]]]}, {"class_name": "Conv2D", "config": {"name": "2079", "trainable": true, "dtype": "float32", "filters": 256, "kernel_size": [3, 3], "strides": [1, 1], "padding": "valid", "data_format": "channels_first", "dilation_rate": [4, 4], "activation": "linear", "use_bias": true, "kernel_initializer": {"class_name": "Zeros", "config": {}}, "bias_initializer": {"class_name": "Zeros", "config": {}}, "kernel_regularizer": null, "bias_regularizer": null, "activity_regularizer": null, "kernel_constraint": null, "bias_constraint": null}, "name": "2079", "inbound_nodes": [[["2079_pad", 0, 0, {}]]]}, {"class_name": "Activation", "config": {"name": "1295", "trainable": true, "dtype": "float32", "activation": "relu"}, "name": "1295", "inbound_nodes": [[["2079", 0, 0, {}]]]}, {"class_name": "ZeroPadding2D", "config": {"name": "2082_pad", "trainable": true, "dtype": "float32", "padding": [[8, 8], [8, 8]], "data_format": "channels_first"}, "name": "2082_pad", "inbound_nodes": [[["1295", 0, 0, {}]]]}, {"class_name": "Conv2D", "config": {"name": "2082", "trainable": true, "dtype": "float32", "filters": 256, "kernel_size": [3, 3], "strides": [1, 1], "padding": "valid", "data_format": "channels_first", "dilation_rate": [8, 8], "activation": "linear", "use_bias": true, "kernel_initializer": {"class_name": "Zeros", "config": {}}, "bias_initializer": {"class_name": "Zeros", "config": {}}, "kernel_regularizer": null, "bias_regularizer": null, "activity_regularizer": null, "kernel_constraint": null, "bias_constraint": null}, "name": "2082", "inbound_nodes": [[["2082_pad", 0, 0, {}]]]}, {"class_name": "Activation", "config": {"name": "1298", "trainable": true, "dtype": "float32", "activation": "relu"}, "name": "1298", "inbound_nodes": [[["2082", 0, 0, {}]]]}, {"class_name": "Concatenate", "config": {"name": "1299", "trainable": true, "dtype": "float32", "axis": 1}, "name": "1299", "inbound_nodes": [[["1298", 0, 0, {}], ["1295", 0, 0, {}]]]}, {"class_name": "ZeroPadding2D", "config": {"name": "2085_pad", "trainable": true, "dtype": "float32", "padding": [[4, 4], [4, 4]], "data_format": "channels_first"}, "name": "2085_pad", "inbound_nodes": [[["1299", 0, 0, {}]]]}, {"class_name": "Conv2D", "config": {"name": "2085", "trainable": true, "dtype": "float32", "filters": 256, "kernel_size": [3, 3], "strides": [1, 1], "padding": "valid", "data_format": "channels_first", "dilation_rate": [4, 4], "activation": "linear", "use_bias": true, "kernel_initializer": {"class_name": "Zeros", "config": {}}, "bias_initializer": {"class_name": "Zeros", "config": {}}, "kernel_regularizer": null, "bias_regularizer": null, "activity_regularizer": null, "kernel_constraint": null, "bias_constraint": null}, "name": "2085", "inbound_nodes": [[["2085_pad", 0, 0, {}]]]}, {"class_name": "Activation", "config": {"name": "1302", "trainable": true, "dtype": "float32", "activation": "relu"}, "name": "1302", "inbound_nodes": [[["2085", 0, 0, {}]]]}, {"class_name": "Concatenate", "config": {"name": "1303", "trainable": true, "dtype": "float32", "axis": 1}, "name": "1303", "inbound_nodes": [[["1302", 0, 0, {}], ["1292", 0, 0, {}]]]}, {"class_name": "ZeroPadding2D", "config": {"name": "2088_pad", "trainable": true, "dtype": "float32", "padding": [[2, 2], [2, 2]], "data_format": "channels_first"}, "name": "2088_pad", "inbound_nodes": [[["1303", 0, 0, {}]]]}, {"class_name": "Conv2D", "config": {"name": "2088", "trainable": true, "dtype": "float32", "filters": 256, "kernel_size": [3, 3], "strides": [1, 1], "padding": "valid", "data_format": "channels_first", "dilation_rate": [2, 2], "activation": "linear", "use_bias": true, "kernel_initializer": {"class_name": "Zeros", "config": {}}, "bias_initializer": {"class_name": "Zeros", "config": {}}, "kernel_regularizer": null, "bias_regularizer": null, "activity_regularizer": null, "kernel_constraint": null, "bias_constraint": null}, "name": "2088", "inbound_nodes": [[["2088_pad", 0, 0, {}]]]}, {"class_name": "Activation", "config": {"name": "1306", "trainable": true, "dtype": "float32", "activation": "relu"}, "name": "1306", "inbound_nodes": [[["2088", 0, 0, {}]]]}, {"class_name": "Concatenate", "config": {"name": "1307", "trainable": true, "dtype": "float32", "axis": 1}, "name": "1307", "inbound_nodes": [[["1306", 0, 0, {}], ["1289", 0, 0, {}]]]}, {"class_name": "ZeroPadding2D", "config": {"name": "2091_pad", "trainable": true, "dtype": "float32", "padding": [[1, 1], [1, 1]], "data_format": "channels_first"}, "name": "2091_pad", "inbound_nodes": [[["1307", 0, 0, {}]]]}, {"class_name": "Conv2D", "config": {"name": "2091", "trainable": true, "dtype": "float32", "filters": 512, "kernel_size": [3, 3], "strides": [1, 1], "padding": "valid", "data_format": "channels_first", "dilation_rate": [1, 1], "activation": "linear", "use_bias": true, "kernel_initializer": {"class_name": "Zeros", "config": {}}, "bias_initializer": {"class_name": "Zeros", "config": {}}, "kernel_regularizer": null, "bias_regularizer": null, "activity_regularizer": null, "kernel_constraint": null, "bias_constraint": null}, "name": "2091", "inbound_nodes": [[["2091_pad", 0, 0, {}]]]}, {"class_name": "Activation", "config": {"name": "1310", "trainable": true, "dtype": "float32", "activation": "relu"}, "name": "1310", "inbound_nodes": [[["2091", 0, 0, {}]]]}, {"class_name": "Add", "config": {"name": "1311", "trainable": true, "dtype": "float32"}, "name": "1311", "inbound_nodes": [[["1310", 0, 0, {}], ["1286", 0, 0, {}]]]}, {"class_name": "UpSampling2D", "config": {"name": "1328", "trainable": true, "dtype": "float32", "size": [2, 2], "data_format": "channels_first", "interpolation": "nearest"}, "name": "1328", "inbound_nodes": [[["1311", 0, 0, {}]]]}, {"class_name": "Concatenate", "config": {"name": "1329", "trainable": true, "dtype": "float32", "axis": 1}, "name": "1329", "inbound_nodes": [[["1328", 0, 0, {}], ["1207", 0, 0, {}]]]}, {"class_name": "ZeroPadding2D", "config": {"name": "2094_pad", "trainable": true, "dtype": "float32", "padding": [[1, 1], [1, 1]], "data_format": "channels_first"}, "name": "2094_pad", "inbound_nodes": [[["1329", 0, 0, {}]]]}, {"class_name": "Conv2D", "config": {"name": "2094", "trainable": true, "dtype": "float32", "filters": 256, "kernel_size": [3, 3], "strides": [1, 1], "padding": "valid", "data_format": "channels_first", "dilation_rate": [1, 1], "activation": "linear", "use_bias": true, "kernel_initializer": {"class_name": "Zeros", "config": {}}, "bias_initializer": {"class_name": "Zeros", "config": {}}, "kernel_regularizer": null, "bias_regularizer": null, "activity_regularizer": null, "kernel_constraint": null, "bias_constraint": null}, "name": "2094", "inbound_nodes": [[["2094_pad", 0, 0, {}]]]}, {"class_name": "Activation", "config": {"name": "1332", "trainable": true, "dtype": "float32", "activation": "relu"}, "name": "1332", "inbound_nodes": [[["2094", 0, 0, {}]]]}, {"class_name": "ZeroPadding2D", "config": {"name": "2097_pad", "trainable": true, "dtype": "float32", "padding": [[1, 1], [1, 1]], "data_format": "channels_first"}, "name": "2097_pad", "inbound_nodes": [[["1332", 0, 0, {}]]]}, {"class_name": "Conv2D", "config": {"name": "2097", "trainable": true, "dtype": "float32", "filters": 128, "kernel_size": [3, 3], "strides": [1, 1], "padding": "valid", "data_format": "channels_first", "dilation_rate": [1, 1], "activation": "linear", "use_bias": true, "kernel_initializer": {"class_name": "Zeros", "config": {}}, "bias_initializer": {"class_name": "Zeros", "config": {}}, "kernel_regularizer": null, "bias_regularizer": null, "activity_regularizer": null, "kernel_constraint": null, "bias_constraint": null}, "name": "2097", "inbound_nodes": [[["2097_pad", 0, 0, {}]]]}, {"class_name": "Activation", "config": {"name": "1335", "trainable": true, "dtype": "float32", "activation": "relu"}, "name": "1335", "inbound_nodes": [[["2097", 0, 0, {}]]]}, {"class_name": "ZeroPadding2D", "config": {"name": "1336_pad", "trainable": true, "dtype": "float32", "padding": [[0, 1], [0, 1]], "data_format": "channels_first"}, "name": "1336_pad", "inbound_nodes": [[["1335", 0, 0, {}]]]}, {"class_name": "MaxPooling2D", "config": {"name": "1336", "trainable": true, "dtype": "float32", "pool_size": [2, 2], "padding": "valid", "strides": [2, 2], "data_format": "channels_first"}, "name": "1336", "inbound_nodes": [[["1336_pad", 0, 0, {}]]]}, {"class_name": "ZeroPadding2D", "config": {"name": "2100_pad", "trainable": true, "dtype": "float32", "padding": [[1, 1], [1, 1]], "data_format": "channels_first"}, "name": "2100_pad", "inbound_nodes": [[["1336", 0, 0, {}]]]}, {"class_name": "Conv2D", "config": {"name": "2100", "trainable": true, "dtype": "float32", "filters": 128, "kernel_size": [3, 3], "strides": [1, 1], "padding": "valid", "data_format": "channels_first", "dilation_rate": [1, 1], "activation": "linear", "use_bias": true, "kernel_initializer": {"class_name": "Zeros", "config": {}}, "bias_initializer": {"class_name": "Zeros", "config": {}}, "kernel_regularizer": null, "bias_regularizer": null, "activity_regularizer": null, "kernel_constraint": null, "bias_constraint": null}, "name": "2100", "inbound_nodes": [[["2100_pad", 0, 0, {}]]]}, {"class_name": "Activation", "config": {"name": "1339", "trainable": true, "dtype": "float32", "activation": "relu"}, "name": "1339", "inbound_nodes": [[["2100", 0, 0, {}]]]}, {"class_name": "ZeroPadding2D", "config": {"name": "1340_pad", "trainable": true, "dtype": "float32", "padding": [[0, 1], [0, 1]], "data_format": "channels_first"}, "name": "1340_pad", "inbound_nodes": [[["1339", 0, 0, {}]]]}, {"class_name": "MaxPooling2D", "config": {"name": "1340", "trainable": true, "dtype": "float32", "pool_size": [2, 2], "padding": "valid", "strides": [2, 2], "data_format": "channels_first"}, "name": "1340", "inbound_nodes": [[["1340_pad", 0, 0, {}]]]}, {"class_name": "ZeroPadding2D", "config": {"name": "2103_pad", "trainable": true, "dtype": "float32", "padding": [[1, 1], [1, 1]], "data_format": "channels_first"}, "name": "2103_pad", "inbound_nodes": [[["1340", 0, 0, {}]]]}, {"class_name": "Conv2D", "config": {"name": "2103", "trainable": true, "dtype": "float32", "filters": 128, "kernel_size": [3, 3], "strides": [1, 1], "padding": "valid", "data_format": "channels_first", "dilation_rate": [1, 1], "activation": "linear", "use_bias": true, "kernel_initializer": {"class_name": "Zeros", "config": {}}, "bias_initializer": {"class_name": "Zeros", "config": {}}, "kernel_regularizer": null, "bias_regularizer": null, "activity_regularizer": null, "kernel_constraint": null, "bias_constraint": null}, "name": "2103", "inbound_nodes": [[["2103_pad", 0, 0, {}]]]}, {"class_name": "Activation", "config": {"name": "1343", "trainable": true, "dtype": "float32", "activation": "relu"}, "name": "1343", "inbound_nodes": [[["2103", 0, 0, {}]]]}, {"class_name": "ZeroPadding2D", "config": {"name": "2106_pad", "trainable": true, "dtype": "float32", "padding": [[2, 2], [2, 2]], "data_format": "channels_first"}, "name": "2106_pad", "inbound_nodes": [[["1343", 0, 0, {}]]]}, {"class_name": "Conv2D", "config": {"name": "2106", "trainable": true, "dtype": "float32", "filters": 128, "kernel_size": [3, 3], "strides": [1, 1], "padding": "valid", "data_format": "channels_first", "dilation_rate": [2, 2], "activation": "linear", "use_bias": true, "kernel_initializer": {"class_name": "Zeros", "config": {}}, "bias_initializer": {"class_name": "Zeros", "config": {}}, "kernel_regularizer": null, "bias_regularizer": null, "activity_regularizer": null, "kernel_constraint": null, "bias_constraint": null}, "name": "2106", "inbound_nodes": [[["2106_pad", 0, 0, {}]]]}, {"class_name": "Activation", "config": {"name": "1346", "trainable": true, "dtype": "float32", "activation": "relu"}, "name": "1346", "inbound_nodes": [[["2106", 0, 0, {}]]]}, {"class_name": "Concatenate", "config": {"name": "1347", "trainable": true, "dtype": "float32", "axis": 1}, "name": "1347", "inbound_nodes": [[["1346", 0, 0, {}], ["1343", 0, 0, {}]]]}, {"class_name": "ZeroPadding2D", "config": {"name": "2109_pad", "trainable": true, "dtype": "float32", "padding": [[1, 1], [1, 1]], "data_format": "channels_first"}, "name": "2109_pad", "inbound_nodes": [[["1347", 0, 0, {}]]]}, {"class_name": "Conv2D", "config": {"name": "2109", "trainable": true, "dtype": "float32", "filters": 128, "kernel_size": [3, 3], "strides": [1, 1], "padding": "valid", "data_format": "channels_first", "dilation_rate": [1, 1], "activation": "linear", "use_bias": true, "kernel_initializer": {"class_name": "Zeros", "config": {}}, "bias_initializer": {"class_name": "Zeros", "config": {}}, "kernel_regularizer": null, "bias_regularizer": null, "activity_regularizer": null, "kernel_constraint": null, "bias_constraint": null}, "name": "2109", "inbound_nodes": [[["2109_pad", 0, 0, {}]]]}, {"class_name": "Activation", "config": {"name": "1350", "trainable": true, "dtype": "float32", "activation": "relu"}, "name": "1350", "inbound_nodes": [[["2109", 0, 0, {}]]]}, {"class_name": "UpSampling2D", "config": {"name": "1367", "trainable": true, "dtype": "float32", "size": [2, 2], "data_format": "channels_first", "interpolation": "nearest"}, "name": "1367", "inbound_nodes": [[["1350", 0, 0, {}]]]}, {"class_name": "Concatenate", "config": {"name": "1368", "trainable": true, "dtype": "float32", "axis": 1}, "name": "1368", "inbound_nodes": [[["1367", 0, 0, {}], ["1339", 0, 0, {}]]]}, {"class_name": "ZeroPadding2D", "config": {"name": "2112_pad", "trainable": true, "dtype": "float32", "padding": [[1, 1], [1, 1]], "data_format": "channels_first"}, "name": "2112_pad", "inbound_nodes": [[["1368", 0, 0, {}]]]}, {"class_name": "Conv2D", "config": {"name": "2112", "trainable": true, "dtype": "float32", "filters": 128, "kernel_size": [3, 3], "strides": [1, 1], "padding": "valid", "data_format": "channels_first", "dilation_rate": [1, 1], "activation": "linear", "use_bias": true, "kernel_initializer": {"class_name": "Zeros", "config": {}}, "bias_initializer": {"class_name": "Zeros", "config": {}}, "kernel_regularizer": null, "bias_regularizer": null, "activity_regularizer": null, "kernel_constraint": null, "bias_constraint": null}, "name": "2112", "inbound_nodes": [[["2112_pad", 0, 0, {}]]]}, {"class_name": "Activation", "config": {"name": "1371", "trainable": true, "dtype": "float32", "activation": "relu"}, "name": "1371", "inbound_nodes": [[["2112", 0, 0, {}]]]}, {"class_name": "UpSampling2D", "config": {"name": "1388", "trainable": true, "dtype": "float32", "size": [2, 2], "data_format": "channels_first", "interpolation": "nearest"}, "name": "1388", "inbound_nodes": [[["1371", 0, 0, {}]]]}, {"class_name": "Concatenate", "config": {"name": "1389", "trainable": true, "dtype": "float32", "axis": 1}, "name": "1389", "inbound_nodes": [[["1388", 0, 0, {}], ["1335", 0, 0, {}]]]}, {"class_name": "ZeroPadding2D", "config": {"name": "2115_pad", "trainable": true, "dtype": "float32", "padding": [[1, 1], [1, 1]], "data_format": "channels_first"}, "name": "2115_pad", "inbound_nodes": [[["1389", 0, 0, {}]]]}, {"class_name": "Conv2D", "config": {"name": "2115", "trainable": true, "dtype": "float32", "filters": 256, "kernel_size": [3, 3], "strides": [1, 1], "padding": "valid", "data_format": "channels_first", "dilation_rate": [1, 1], "activation": "linear", "use_bias": true, "kernel_initializer": {"class_name": "Zeros", "config": {}}, "bias_initializer": {"class_name": "Zeros", "config": {}}, "kernel_regularizer": null, "bias_regularizer": null, "activity_regularizer": null, "kernel_constraint": null, "bias_constraint": null}, "name": "2115", "inbound_nodes": [[["2115_pad", 0, 0, {}]]]}, {"class_name": "Activation", "config": {"name": "1392", "trainable": true, "dtype": "float32", "activation": "relu"}, "name": "1392", "inbound_nodes": [[["2115", 0, 0, {}]]]}, {"class_name": "Add", "config": {"name": "1393", "trainable": true, "dtype": "float32"}, "name": "1393", "inbound_nodes": [[["1392", 0, 0, {}], ["1332", 0, 0, {}]]]}, {"class_name": "UpSampling2D", "config": {"name": "1410", "trainable": true, "dtype": "float32", "size": [2, 2], "data_format": "channels_first", "interpolation": "nearest"}, "name": "1410", "inbound_nodes": [[["1393", 0, 0, {}]]]}, {"class_name": "Concatenate", "config": {"name": "1411", "trainable": true, "dtype": "float32", "axis": 1}, "name": "1411", "inbound_nodes": [[["1410", 0, 0, {}], ["1142", 0, 0, {}]]]}, {"class_name": "ZeroPadding2D", "config": {"name": "2118_pad", "trainable": true, "dtype": "float32", "padding": [[1, 1], [1, 1]], "data_format": "channels_first"}, "name": "2118_pad", "inbound_nodes": [[["1411", 0, 0, {}]]]}, {"class_name": "Conv2D", "config": {"name": "2118", "trainable": true, "dtype": "float32", "filters": 128, "kernel_size": [3, 3], "strides": [1, 1], "padding": "valid", "data_format": "channels_first", "dilation_rate": [1, 1], "activation": "linear", "use_bias": true, "kernel_initializer": {"class_name": "Zeros", "config": {}}, "bias_initializer": {"class_name": "Zeros", "config": {}}, "kernel_regularizer": null, "bias_regularizer": null, "activity_regularizer": null, "kernel_constraint": null, "bias_constraint": null}, "name": "2118", "inbound_nodes": [[["2118_pad", 0, 0, {}]]]}, {"class_name": "Activation", "config": {"name": "1414", "trainable": true, "dtype": "float32", "activation": "relu"}, "name": "1414", "inbound_nodes": [[["2118", 0, 0, {}]]]}, {"class_name": "ZeroPadding2D", "config": {"name": "2121_pad", "trainable": true, "dtype": "float32", "padding": [[1, 1], [1, 1]], "data_format": "channels_first"}, "name": "2121_pad", "inbound_nodes": [[["1414", 0, 0, {}]]]}, {"class_name": "Conv2D", "config": {"name": "2121", "trainable": true, "dtype": "float32", "filters": 64, "kernel_size": [3, 3], "strides": [1, 1], "padding": "valid", "data_format": "channels_first", "dilation_rate": [1, 1], "activation": "linear", "use_bias": true, "kernel_initializer": {"class_name": "Zeros", "config": {}}, "bias_initializer": {"class_name": "Zeros", "config": {}}, "kernel_regularizer": null, "bias_regularizer": null, "activity_regularizer": null, "kernel_constraint": null, "bias_constraint": null}, "name": "2121", "inbound_nodes": [[["2121_pad", 0, 0, {}]]]}, {"class_name": "Activation", "config": {"name": "1417", "trainable": true, "dtype": "float32", "activation": "relu"}, "name": "1417", "inbound_nodes": [[["2121", 0, 0, {}]]]}, {"class_name": "ZeroPadding2D", "config": {"name": "1418_pad", "trainable": true, "dtype": "float32", "padding": [[0, 1], [0, 1]], "data_format": "channels_first"}, "name": "1418_pad", "inbound_nodes": [[["1417", 0, 0, {}]]]}, {"class_name": "MaxPooling2D", "config": {"name": "1418", "trainable": true, "dtype": "float32", "pool_size": [2, 2], "padding": "valid", "strides": [2, 2], "data_format": "channels_first"}, "name": "1418", "inbound_nodes": [[["1418_pad", 0, 0, {}]]]}, {"class_name": "ZeroPadding2D", "config": {"name": "2124_pad", "trainable": true, "dtype": "float32", "padding": [[1, 1], [1, 1]], "data_format": "channels_first"}, "name": "2124_pad", "inbound_nodes": [[["1418", 0, 0, {}]]]}, {"class_name": "Conv2D", "config": {"name": "2124", "trainable": true, "dtype": "float32", "filters": 64, "kernel_size": [3, 3], "strides": [1, 1], "padding": "valid", "data_format": "channels_first", "dilation_rate": [1, 1], "activation": "linear", "use_bias": true, "kernel_initializer": {"class_name": "Zeros", "config": {}}, "bias_initializer": {"class_name": "Zeros", "config": {}}, "kernel_regularizer": null, "bias_regularizer": null, "activity_regularizer": null, "kernel_constraint": null, "bias_constraint": null}, "name": "2124", "inbound_nodes": [[["2124_pad", 0, 0, {}]]]}, {"class_name": "Activation", "config": {"name": "1421", "trainable": true, "dtype": "float32", "activation": "relu"}, "name": "1421", "inbound_nodes": [[["2124", 0, 0, {}]]]}, {"class_name": "ZeroPadding2D", "config": {"name": "1422_pad", "trainable": true, "dtype": "float32", "padding": [[0, 1], [0, 1]], "data_format": "channels_first"}, "name": "1422_pad", "inbound_nodes": [[["1421", 0, 0, {}]]]}, {"class_name": "MaxPooling2D", "config": {"name": "1422", "trainable": true, "dtype": "float32", "pool_size": [2, 2], "padding": "valid", "strides": [2, 2], "data_format": "channels_first"}, "name": "1422", "inbound_nodes": [[["1422_pad", 0, 0, {}]]]}, {"class_name": "ZeroPadding2D", "config": {"name": "2127_pad", "trainable": true, "dtype": "float32", "padding": [[1, 1], [1, 1]], "data_format": "channels_first"}, "name": "2127_pad", "inbound_nodes": [[["1422", 0, 0, {}]]]}, {"class_name": "Conv2D", "config": {"name": "2127", "trainable": true, "dtype": "float32", "filters": 64, "kernel_size": [3, 3], "strides": [1, 1], "padding": "valid", "data_format": "channels_first", "dilation_rate": [1, 1], "activation": "linear", "use_bias": true, "kernel_initializer": {"class_name": "Zeros", "config": {}}, "bias_initializer": {"class_name": "Zeros", "config": {}}, "kernel_regularizer": null, "bias_regularizer": null, "activity_regularizer": null, "kernel_constraint": null, "bias_constraint": null}, "name": "2127", "inbound_nodes": [[["2127_pad", 0, 0, {}]]]}, {"class_name": "Activation", "config": {"name": "1425", "trainable": true, "dtype": "float32", "activation": "relu"}, "name": "1425", "inbound_nodes": [[["2127", 0, 0, {}]]]}, {"class_name": "ZeroPadding2D", "config": {"name": "1426_pad", "trainable": true, "dtype": "float32", "padding": [[0, 1], [0, 1]], "data_format": "channels_first"}, "name": "1426_pad", "inbound_nodes": [[["1425", 0, 0, {}]]]}, {"class_name": "MaxPooling2D", "config": {"name": "1426", "trainable": true, "dtype": "float32", "pool_size": [2, 2], "padding": "valid", "strides": [2, 2], "data_format": "channels_first"}, "name": "1426", "inbound_nodes": [[["1426_pad", 0, 0, {}]]]}, {"class_name": "ZeroPadding2D", "config": {"name": "2130_pad", "trainable": true, "dtype": "float32", "padding": [[1, 1], [1, 1]], "data_format": "channels_first"}, "name": "2130_pad", "inbound_nodes": [[["1426", 0, 0, {}]]]}, {"class_name": "Conv2D", "config": {"name": "2130", "trainable": true, "dtype": "float32", "filters": 64, "kernel_size": [3, 3], "strides": [1, 1], "padding": "valid", "data_format": "channels_first", "dilation_rate": [1, 1], "activation": "linear", "use_bias": true, "kernel_initializer": {"class_name": "Zeros", "config": {}}, "bias_initializer": {"class_name": "Zeros", "config": {}}, "kernel_regularizer": null, "bias_regularizer": null, "activity_regularizer": null, "kernel_constraint": null, "bias_constraint": null}, "name": "2130", "inbound_nodes": [[["2130_pad", 0, 0, {}]]]}, {"class_name": "Activation", "config": {"name": "1429", "trainable": true, "dtype": "float32", "activation": "relu"}, "name": "1429", "inbound_nodes": [[["2130", 0, 0, {}]]]}, {"class_name": "ZeroPadding2D", "config": {"name": "2133_pad", "trainable": true, "dtype": "float32", "padding": [[2, 2], [2, 2]], "data_format": "channels_first"}, "name": "2133_pad", "inbound_nodes": [[["1429", 0, 0, {}]]]}, {"class_name": "Conv2D", "config": {"name": "2133", "trainable": true, "dtype": "float32", "filters": 64, "kernel_size": [3, 3], "strides": [1, 1], "padding": "valid", "data_format": "channels_first", "dilation_rate": [2, 2], "activation": "linear", "use_bias": true, "kernel_initializer": {"class_name": "Zeros", "config": {}}, "bias_initializer": {"class_name": "Zeros", "config": {}}, "kernel_regularizer": null, "bias_regularizer": null, "activity_regularizer": null, "kernel_constraint": null, "bias_constraint": null}, "name": "2133", "inbound_nodes": [[["2133_pad", 0, 0, {}]]]}, {"class_name": "Activation", "config": {"name": "1432", "trainable": true, "dtype": "float32", "activation": "relu"}, "name": "1432", "inbound_nodes": [[["2133", 0, 0, {}]]]}, {"class_name": "Concatenate", "config": {"name": "1433", "trainable": true, "dtype": "float32", "axis": 1}, "name": "1433", "inbound_nodes": [[["1432", 0, 0, {}], ["1429", 0, 0, {}]]]}, {"class_name": "ZeroPadding2D", "config": {"name": "2136_pad", "trainable": true, "dtype": "float32", "padding": [[1, 1], [1, 1]], "data_format": "channels_first"}, "name": "2136_pad", "inbound_nodes": [[["1433", 0, 0, {}]]]}, {"class_name": "Conv2D", "config": {"name": "2136", "trainable": true, "dtype": "float32", "filters": 64, "kernel_size": [3, 3], "strides": [1, 1], "padding": "valid", "data_format": "channels_first", "dilation_rate": [1, 1], "activation": "linear", "use_bias": true, "kernel_initializer": {"class_name": "Zeros", "config": {}}, "bias_initializer": {"class_name": "Zeros", "config": {}}, "kernel_regularizer": null, "bias_regularizer": null, "activity_regularizer": null, "kernel_constraint": null, "bias_constraint": null}, "name": "2136", "inbound_nodes": [[["2136_pad", 0, 0, {}]]]}, {"class_name": "Activation", "config": {"name": "1436", "trainable": true, "dtype": "float32", "activation": "relu"}, "name": "1436", "inbound_nodes": [[["2136", 0, 0, {}]]]}, {"class_name": "UpSampling2D", "config": {"name": "1453", "trainable": true, "dtype": "float32", "size": [2, 2], "data_format": "channels_first", "interpolation": "nearest"}, "name": "1453", "inbound_nodes": [[["1436", 0, 0, {}]]]}, {"class_name": "Concatenate", "config": {"name": "1454", "trainable": true, "dtype": "float32", "axis": 1}, "name": "1454", "inbound_nodes": [[["1453", 0, 0, {}], ["1425", 0, 0, {}]]]}, {"class_name": "ZeroPadding2D", "config": {"name": "2139_pad", "trainable": true, "dtype": "float32", "padding": [[1, 1], [1, 1]], "data_format": "channels_first"}, "name": "2139_pad", "inbound_nodes": [[["1454", 0, 0, {}]]]}, {"class_name": "Conv2D", "config": {"name": "2139", "trainable": true, "dtype": "float32", "filters": 64, "kernel_size": [3, 3], "strides": [1, 1], "padding": "valid", "data_format": "channels_first", "dilation_rate": [1, 1], "activation": "linear", "use_bias": true, "kernel_initializer": {"class_name": "Zeros", "config": {}}, "bias_initializer": {"class_name": "Zeros", "config": {}}, "kernel_regularizer": null, "bias_regularizer": null, "activity_regularizer": null, "kernel_constraint": null, "bias_constraint": null}, "name": "2139", "inbound_nodes": [[["2139_pad", 0, 0, {}]]]}, {"class_name": "Activation", "config": {"name": "1457", "trainable": true, "dtype": "float32", "activation": "relu"}, "name": "1457", "inbound_nodes": [[["2139", 0, 0, {}]]]}, {"class_name": "UpSampling2D", "config": {"name": "1474", "trainable": true, "dtype": "float32", "size": [2, 2], "data_format": "channels_first", "interpolation": "nearest"}, "name": "1474", "inbound_nodes": [[["1457", 0, 0, {}]]]}, {"class_name": "Concatenate", "config": {"name": "1475", "trainable": true, "dtype": "float32", "axis": 1}, "name": "1475", "inbound_nodes": [[["1474", 0, 0, {}], ["1421", 0, 0, {}]]]}, {"class_name": "ZeroPadding2D", "config": {"name": "2142_pad", "trainable": true, "dtype": "float32", "padding": [[1, 1], [1, 1]], "data_format": "channels_first"}, "name": "2142_pad", "inbound_nodes": [[["1475", 0, 0, {}]]]}, {"class_name": "Conv2D", "config": {"name": "2142", "trainable": true, "dtype": "float32", "filters": 64, "kernel_size": [3, 3], "strides": [1, 1], "padding": "valid", "data_format": "channels_first", "dilation_rate": [1, 1], "activation": "linear", "use_bias": true, "kernel_initializer": {"class_name": "Zeros", "config": {}}, "bias_initializer": {"class_name": "Zeros", "config": {}}, "kernel_regularizer": null, "bias_regularizer": null, "activity_regularizer": null, "kernel_constraint": null, "bias_constraint": null}, "name": "2142", "inbound_nodes": [[["2142_pad", 0, 0, {}]]]}, {"class_name": "Activation", "config": {"name": "1478", "trainable": true, "dtype": "float32", "activation": "relu"}, "name": "1478", "inbound_nodes": [[["2142", 0, 0, {}]]]}, {"class_name": "UpSampling2D", "config": {"name": "1495", "trainable": true, "dtype": "float32", "size": [2, 2], "data_format": "channels_first", "interpolation": "nearest"}, "name": "1495", "inbound_nodes": [[["1478", 0, 0, {}]]]}, {"class_name": "Concatenate", "config": {"name": "1496", "trainable": true, "dtype": "float32", "axis": 1}, "name": "1496", "inbound_nodes": [[["1495", 0, 0, {}], ["1417", 0, 0, {}]]]}, {"class_name": "ZeroPadding2D", "config": {"name": "2145_pad", "trainable": true, "dtype": "float32", "padding": [[1, 1], [1, 1]], "data_format": "channels_first"}, "name": "2145_pad", "inbound_nodes": [[["1496", 0, 0, {}]]]}, {"class_name": "Conv2D", "config": {"name": "2145", "trainable": true, "dtype": "float32", "filters": 128, "kernel_size": [3, 3], "strides": [1, 1], "padding": "valid", "data_format": "channels_first", "dilation_rate": [1, 1], "activation": "linear", "use_bias": true, "kernel_initializer": {"class_name": "Zeros", "config": {}}, "bias_initializer": {"class_name": "Zeros", "config": {}}, "kernel_regularizer": null, "bias_regularizer": null, "activity_regularizer": null, "kernel_constraint": null, "bias_constraint": null}, "name": "2145", "inbound_nodes": [[["2145_pad", 0, 0, {}]]]}, {"class_name": "Activation", "config": {"name": "1499", "trainable": true, "dtype": "float32", "activation": "relu"}, "name": "1499", "inbound_nodes": [[["2145", 0, 0, {}]]]}, {"class_name": "Add", "config": {"name": "1500", "trainable": true, "dtype": "float32"}, "name": "1500", "inbound_nodes": [[["1499", 0, 0, {}], ["1414", 0, 0, {}]]]}, {"class_name": "UpSampling2D", "config": {"name": "1517", "trainable": true, "dtype": "float32", "size": [2, 2], "data_format": "channels_first", "interpolation": "nearest"}, "name": "1517", "inbound_nodes": [[["1500", 0, 0, {}]]]}, {"class_name": "Concatenate", "config": {"name": "1518", "trainable": true, "dtype": "float32", "axis": 1}, "name": "1518", "inbound_nodes": [[["1517", 0, 0, {}], ["1052", 0, 0, {}]]]}, {"class_name": "ZeroPadding2D", "config": {"name": "2148_pad", "trainable": true, "dtype": "float32", "padding": [[1, 1], [1, 1]], "data_format": "channels_first"}, "name": "2148_pad", "inbound_nodes": [[["1518", 0, 0, {}]]]}, {"class_name": "Conv2D", "config": {"name": "2148", "trainable": true, "dtype": "float32", "filters": 64, "kernel_size": [3, 3], "strides": [1, 1], "padding": "valid", "data_format": "channels_first", "dilation_rate": [1, 1], "activation": "linear", "use_bias": true, "kernel_initializer": {"class_name": "Zeros", "config": {}}, "bias_initializer": {"class_name": "Zeros", "config": {}}, "kernel_regularizer": null, "bias_regularizer": null, "activity_regularizer": null, "kernel_constraint": null, "bias_constraint": null}, "name": "2148", "inbound_nodes": [[["2148_pad", 0, 0, {}]]]}, {"class_name": "Activation", "config": {"name": "1521", "trainable": true, "dtype": "float32", "activation": "relu"}, "name": "1521", "inbound_nodes": [[["2148", 0, 0, {}]]]}, {"class_name": "ZeroPadding2D", "config": {"name": "2151_pad", "trainable": true, "dtype": "float32", "padding": [[1, 1], [1, 1]], "data_format": "channels_first"}, "name": "2151_pad", "inbound_nodes": [[["1521", 0, 0, {}]]]}, {"class_name": "Conv2D", "config": {"name": "2151", "trainable": true, "dtype": "float32", "filters": 32, "kernel_size": [3, 3], "strides": [1, 1], "padding": "valid", "data_format": "channels_first", "dilation_rate": [1, 1], "activation": "linear", "use_bias": true, "kernel_initializer": {"class_name": "Zeros", "config": {}}, "bias_initializer": {"class_name": "Zeros", "config": {}}, "kernel_regularizer": null, "bias_regularizer": null, "activity_regularizer": null, "kernel_constraint": null, "bias_constraint": null}, "name": "2151", "inbound_nodes": [[["2151_pad", 0, 0, {}]]]}, {"class_name": "Activation", "config": {"name": "1524", "trainable": true, "dtype": "float32", "activation": "relu"}, "name": "1524", "inbound_nodes": [[["2151", 0, 0, {}]]]}, {"class_name": "ZeroPadding2D", "config": {"name": "1525_pad", "trainable": true, "dtype": "float32", "padding": [[0, 1], [0, 1]], "data_format": "channels_first"}, "name": "1525_pad", "inbound_nodes": [[["1524", 0, 0, {}]]]}, {"class_name": "MaxPooling2D", "config": {"name": "1525", "trainable": true, "dtype": "float32", "pool_size": [2, 2], "padding": "valid", "strides": [2, 2], "data_format": "channels_first"}, "name": "1525", "inbound_nodes": [[["1525_pad", 0, 0, {}]]]}, {"class_name": "ZeroPadding2D", "config": {"name": "2154_pad", "trainable": true, "dtype": "float32", "padding": [[1, 1], [1, 1]], "data_format": "channels_first"}, "name": "2154_pad", "inbound_nodes": [[["1525", 0, 0, {}]]]}, {"class_name": "Conv2D", "config": {"name": "2154", "trainable": true, "dtype": "float32", "filters": 32, "kernel_size": [3, 3], "strides": [1, 1], "padding": "valid", "data_format": "channels_first", "dilation_rate": [1, 1], "activation": "linear", "use_bias": true, "kernel_initializer": {"class_name": "Zeros", "config": {}}, "bias_initializer": {"class_name": "Zeros", "config": {}}, "kernel_regularizer": null, "bias_regularizer": null, "activity_regularizer": null, "kernel_constraint": null, "bias_constraint": null}, "name": "2154", "inbound_nodes": [[["2154_pad", 0, 0, {}]]]}, {"class_name": "Activation", "config": {"name": "1528", "trainable": true, "dtype": "float32", "activation": "relu"}, "name": "1528", "inbound_nodes": [[["2154", 0, 0, {}]]]}, {"class_name": "ZeroPadding2D", "config": {"name": "1529_pad", "trainable": true, "dtype": "float32", "padding": [[0, 1], [0, 1]], "data_format": "channels_first"}, "name": "1529_pad", "inbound_nodes": [[["1528", 0, 0, {}]]]}, {"class_name": "MaxPooling2D", "config": {"name": "1529", "trainable": true, "dtype": "float32", "pool_size": [2, 2], "padding": "valid", "strides": [2, 2], "data_format": "channels_first"}, "name": "1529", "inbound_nodes": [[["1529_pad", 0, 0, {}]]]}, {"class_name": "ZeroPadding2D", "config": {"name": "2157_pad", "trainable": true, "dtype": "float32", "padding": [[1, 1], [1, 1]], "data_format": "channels_first"}, "name": "2157_pad", "inbound_nodes": [[["1529", 0, 0, {}]]]}, {"class_name": "Conv2D", "config": {"name": "2157", "trainable": true, "dtype": "float32", "filters": 32, "kernel_size": [3, 3], "strides": [1, 1], "padding": "valid", "data_format": "channels_first", "dilation_rate": [1, 1], "activation": "linear", "use_bias": true, "kernel_initializer": {"class_name": "Zeros", "config": {}}, "bias_initializer": {"class_name": "Zeros", "config": {}}, "kernel_regularizer": null, "bias_regularizer": null, "activity_regularizer": null, "kernel_constraint": null, "bias_constraint": null}, "name": "2157", "inbound_nodes": [[["2157_pad", 0, 0, {}]]]}, {"class_name": "Activation", "config": {"name": "1532", "trainable": true, "dtype": "float32", "activation": "relu"}, "name": "1532", "inbound_nodes": [[["2157", 0, 0, {}]]]}, {"class_name": "ZeroPadding2D", "config": {"name": "1533_pad", "trainable": true, "dtype": "float32", "padding": [[0, 1], [0, 1]], "data_format": "channels_first"}, "name": "1533_pad", "inbound_nodes": [[["1532", 0, 0, {}]]]}, {"class_name": "MaxPooling2D", "config": {"name": "1533", "trainable": true, "dtype": "float32", "pool_size": [2, 2], "padding": "valid", "strides": [2, 2], "data_format": "channels_first"}, "name": "1533", "inbound_nodes": [[["1533_pad", 0, 0, {}]]]}, {"class_name": "ZeroPadding2D", "config": {"name": "2160_pad", "trainable": true, "dtype": "float32", "padding": [[1, 1], [1, 1]], "data_format": "channels_first"}, "name": "2160_pad", "inbound_nodes": [[["1533", 0, 0, {}]]]}, {"class_name": "Conv2D", "config": {"name": "2160", "trainable": true, "dtype": "float32", "filters": 32, "kernel_size": [3, 3], "strides": [1, 1], "padding": "valid", "data_format": "channels_first", "dilation_rate": [1, 1], "activation": "linear", "use_bias": true, "kernel_initializer": {"class_name": "Zeros", "config": {}}, "bias_initializer": {"class_name": "Zeros", "config": {}}, "kernel_regularizer": null, "bias_regularizer": null, "activity_regularizer": null, "kernel_constraint": null, "bias_constraint": null}, "name": "2160", "inbound_nodes": [[["2160_pad", 0, 0, {}]]]}, {"class_name": "Activation", "config": {"name": "1536", "trainable": true, "dtype": "float32", "activation": "relu"}, "name": "1536", "inbound_nodes": [[["2160", 0, 0, {}]]]}, {"class_name": "ZeroPadding2D", "config": {"name": "1537_pad", "trainable": true, "dtype": "float32", "padding": [[0, 1], [0, 1]], "data_format": "channels_first"}, "name": "1537_pad", "inbound_nodes": [[["1536", 0, 0, {}]]]}, {"class_name": "MaxPooling2D", "config": {"name": "1537", "trainable": true, "dtype": "float32", "pool_size": [2, 2], "padding": "valid", "strides": [2, 2], "data_format": "channels_first"}, "name": "1537", "inbound_nodes": [[["1537_pad", 0, 0, {}]]]}, {"class_name": "ZeroPadding2D", "config": {"name": "2163_pad", "trainable": true, "dtype": "float32", "padding": [[1, 1], [1, 1]], "data_format": "channels_first"}, "name": "2163_pad", "inbound_nodes": [[["1537", 0, 0, {}]]]}, {"class_name": "Conv2D", "config": {"name": "2163", "trainable": true, "dtype": "float32", "filters": 32, "kernel_size": [3, 3], "strides": [1, 1], "padding": "valid", "data_format": "channels_first", "dilation_rate": [1, 1], "activation": "linear", "use_bias": true, "kernel_initializer": {"class_name": "Zeros", "config": {}}, "bias_initializer": {"class_name": "Zeros", "config": {}}, "kernel_regularizer": null, "bias_regularizer": null, "activity_regularizer": null, "kernel_constraint": null, "bias_constraint": null}, "name": "2163", "inbound_nodes": [[["2163_pad", 0, 0, {}]]]}, {"class_name": "Activation", "config": {"name": "1540", "trainable": true, "dtype": "float32", "activation": "relu"}, "name": "1540", "inbound_nodes": [[["2163", 0, 0, {}]]]}, {"class_name": "ZeroPadding2D", "config": {"name": "2166_pad", "trainable": true, "dtype": "float32", "padding": [[2, 2], [2, 2]], "data_format": "channels_first"}, "name": "2166_pad", "inbound_nodes": [[["1540", 0, 0, {}]]]}, {"class_name": "Conv2D", "config": {"name": "2166", "trainable": true, "dtype": "float32", "filters": 32, "kernel_size": [3, 3], "strides": [1, 1], "padding": "valid", "data_format": "channels_first", "dilation_rate": [2, 2], "activation": "linear", "use_bias": true, "kernel_initializer": {"class_name": "Zeros", "config": {}}, "bias_initializer": {"class_name": "Zeros", "config": {}}, "kernel_regularizer": null, "bias_regularizer": null, "activity_regularizer": null, "kernel_constraint": null, "bias_constraint": null}, "name": "2166", "inbound_nodes": [[["2166_pad", 0, 0, {}]]]}, {"class_name": "Activation", "config": {"name": "1543", "trainable": true, "dtype": "float32", "activation": "relu"}, "name": "1543", "inbound_nodes": [[["2166", 0, 0, {}]]]}, {"class_name": "Concatenate", "config": {"name": "1544", "trainable": true, "dtype": "float32", "axis": 1}, "name": "1544", "inbound_nodes": [[["1543", 0, 0, {}], ["1540", 0, 0, {}]]]}, {"class_name": "ZeroPadding2D", "config": {"name": "2169_pad", "trainable": true, "dtype": "float32", "padding": [[1, 1], [1, 1]], "data_format": "channels_first"}, "name": "2169_pad", "inbound_nodes": [[["1544", 0, 0, {}]]]}, {"class_name": "Conv2D", "config": {"name": "2169", "trainable": true, "dtype": "float32", "filters": 32, "kernel_size": [3, 3], "strides": [1, 1], "padding": "valid", "data_format": "channels_first", "dilation_rate": [1, 1], "activation": "linear", "use_bias": true, "kernel_initializer": {"class_name": "Zeros", "config": {}}, "bias_initializer": {"class_name": "Zeros", "config": {}}, "kernel_regularizer": null, "bias_regularizer": null, "activity_regularizer": null, "kernel_constraint": null, "bias_constraint": null}, "name": "2169", "inbound_nodes": [[["2169_pad", 0, 0, {}]]]}, {"class_name": "Activation", "config": {"name": "1547", "trainable": true, "dtype": "float32", "activation": "relu"}, "name": "1547", "inbound_nodes": [[["2169", 0, 0, {}]]]}, {"class_name": "UpSampling2D", "config": {"name": "1564", "trainable": true, "dtype": "float32", "size": [2, 2], "data_format": "channels_first", "interpolation": "nearest"}, "name": "1564", "inbound_nodes": [[["1547", 0, 0, {}]]]}, {"class_name": "Concatenate", "config": {"name": "1565", "trainable": true, "dtype": "float32", "axis": 1}, "name": "1565", "inbound_nodes": [[["1564", 0, 0, {}], ["1536", 0, 0, {}]]]}, {"class_name": "ZeroPadding2D", "config": {"name": "2172_pad", "trainable": true, "dtype": "float32", "padding": [[1, 1], [1, 1]], "data_format": "channels_first"}, "name": "2172_pad", "inbound_nodes": [[["1565", 0, 0, {}]]]}, {"class_name": "Conv2D", "config": {"name": "2172", "trainable": true, "dtype": "float32", "filters": 32, "kernel_size": [3, 3], "strides": [1, 1], "padding": "valid", "data_format": "channels_first", "dilation_rate": [1, 1], "activation": "linear", "use_bias": true, "kernel_initializer": {"class_name": "Zeros", "config": {}}, "bias_initializer": {"class_name": "Zeros", "config": {}}, "kernel_regularizer": null, "bias_regularizer": null, "activity_regularizer": null, "kernel_constraint": null, "bias_constraint": null}, "name": "2172", "inbound_nodes": [[["2172_pad", 0, 0, {}]]]}, {"class_name": "Activation", "config": {"name": "1568", "trainable": true, "dtype": "float32", "activation": "relu"}, "name": "1568", "inbound_nodes": [[["2172", 0, 0, {}]]]}, {"class_name": "UpSampling2D", "config": {"name": "1585", "trainable": true, "dtype": "float32", "size": [2, 2], "data_format": "channels_first", "interpolation": "nearest"}, "name": "1585", "inbound_nodes": [[["1568", 0, 0, {}]]]}, {"class_name": "Concatenate", "config": {"name": "1586", "trainable": true, "dtype": "float32", "axis": 1}, "name": "1586", "inbound_nodes": [[["1585", 0, 0, {}], ["1532", 0, 0, {}]]]}, {"class_name": "ZeroPadding2D", "config": {"name": "2175_pad", "trainable": true, "dtype": "float32", "padding": [[1, 1], [1, 1]], "data_format": "channels_first"}, "name": "2175_pad", "inbound_nodes": [[["1586", 0, 0, {}]]]}, {"class_name": "Conv2D", "config": {"name": "2175", "trainable": true, "dtype": "float32", "filters": 32, "kernel_size": [3, 3], "strides": [1, 1], "padding": "valid", "data_format": "channels_first", "dilation_rate": [1, 1], "activation": "linear", "use_bias": true, "kernel_initializer": {"class_name": "Zeros", "config": {}}, "bias_initializer": {"class_name": "Zeros", "config": {}}, "kernel_regularizer": null, "bias_regularizer": null, "activity_regularizer": null, "kernel_constraint": null, "bias_constraint": null}, "name": "2175", "inbound_nodes": [[["2175_pad", 0, 0, {}]]]}, {"class_name": "Activation", "config": {"name": "1589", "trainable": true, "dtype": "float32", "activation": "relu"}, "name": "1589", "inbound_nodes": [[["2175", 0, 0, {}]]]}, {"class_name": "UpSampling2D", "config": {"name": "1606", "trainable": true, "dtype": "float32", "size": [2, 2], "data_format": "channels_first", "interpolation": "nearest"}, "name": "1606", "inbound_nodes": [[["1589", 0, 0, {}]]]}, {"class_name": "Concatenate", "config": {"name": "1607", "trainable": true, "dtype": "float32", "axis": 1}, "name": "1607", "inbound_nodes": [[["1606", 0, 0, {}], ["1528", 0, 0, {}]]]}, {"class_name": "ZeroPadding2D", "config": {"name": "2178_pad", "trainable": true, "dtype": "float32", "padding": [[1, 1], [1, 1]], "data_format": "channels_first"}, "name": "2178_pad", "inbound_nodes": [[["1607", 0, 0, {}]]]}, {"class_name": "Conv2D", "config": {"name": "2178", "trainable": true, "dtype": "float32", "filters": 32, "kernel_size": [3, 3], "strides": [1, 1], "padding": "valid", "data_format": "channels_first", "dilation_rate": [1, 1], "activation": "linear", "use_bias": true, "kernel_initializer": {"class_name": "Zeros", "config": {}}, "bias_initializer": {"class_name": "Zeros", "config": {}}, "kernel_regularizer": null, "bias_regularizer": null, "activity_regularizer": null, "kernel_constraint": null, "bias_constraint": null}, "name": "2178", "inbound_nodes": [[["2178_pad", 0, 0, {}]]]}, {"class_name": "Activation", "config": {"name": "1610", "trainable": true, "dtype": "float32", "activation": "relu"}, "name": "1610", "inbound_nodes": [[["2178", 0, 0, {}]]]}, {"class_name": "UpSampling2D", "config": {"name": "1627", "trainable": true, "dtype": "float32", "size": [2, 2], "data_format": "channels_first", "interpolation": "nearest"}, "name": "1627", "inbound_nodes": [[["1610", 0, 0, {}]]]}, {"class_name": "Concatenate", "config": {"name": "1628", "trainable": true, "dtype": "float32", "axis": 1}, "name": "1628", "inbound_nodes": [[["1627", 0, 0, {}], ["1524", 0, 0, {}]]]}, {"class_name": "ZeroPadding2D", "config": {"name": "2181_pad", "trainable": true, "dtype": "float32", "padding": [[1, 1], [1, 1]], "data_format": "channels_first"}, "name": "2181_pad", "inbound_nodes": [[["1628", 0, 0, {}]]]}, {"class_name": "Conv2D", "config": {"name": "2181", "trainable": true, "dtype": "float32", "filters": 64, "kernel_size": [3, 3], "strides": [1, 1], "padding": "valid", "data_format": "channels_first", "dilation_rate": [1, 1], "activation": "linear", "use_bias": true, "kernel_initializer": {"class_name": "Zeros", "config": {}}, "bias_initializer": {"class_name": "Zeros", "config": {}}, "kernel_regularizer": null, "bias_regularizer": null, "activity_regularizer": null, "kernel_constraint": null, "bias_constraint": null}, "name": "2181", "inbound_nodes": [[["2181_pad", 0, 0, {}]]]}, {"class_name": "Activation", "config": {"name": "1631", "trainable": true, "dtype": "float32", "activation": "relu"}, "name": "1631", "inbound_nodes": [[["2181", 0, 0, {}]]]}, {"class_name": "Add", "config": {"name": "1632", "trainable": true, "dtype": "float32"}, "name": "1632", "inbound_nodes": [[["1631", 0, 0, {}], ["1521", 0, 0, {}]]]}, {"class_name": "UpSampling2D", "config": {"name": "1649", "trainable": true, "dtype": "float32", "size": [2, 2], "data_format": "channels_first", "interpolation": "nearest"}, "name": "1649", "inbound_nodes": [[["1632", 0, 0, {}]]]}, {"class_name": "Concatenate", "config": {"name": "1650", "trainable": true, "dtype": "float32", "axis": 1}, "name": "1650", "inbound_nodes": [[["1649", 0, 0, {}], ["937", 0, 0, {}]]]}, {"class_name": "ZeroPadding2D", "config": {"name": "2184_pad", "trainable": true, "dtype": "float32", "padding": [[1, 1], [1, 1]], "data_format": "channels_first"}, "name": "2184_pad", "inbound_nodes": [[["1650", 0, 0, {}]]]}, {"class_name": "Conv2D", "config": {"name": "2184", "trainable": true, "dtype": "float32", "filters": 64, "kernel_size": [3, 3], "strides": [1, 1], "padding": "valid", "data_format": "channels_first", "dilation_rate": [1, 1], "activation": "linear", "use_bias": true, "kernel_initializer": {"class_name": "Zeros", "config": {}}, "bias_initializer": {"class_name": "Zeros", "config": {}}, "kernel_regularizer": null, "bias_regularizer": null, "activity_regularizer": null, "kernel_constraint": null, "bias_constraint": null}, "name": "2184", "inbound_nodes": [[["2184_pad", 0, 0, {}]]]}, {"class_name": "Activation", "config": {"name": "1653", "trainable": true, "dtype": "float32", "activation": "relu"}, "name": "1653", "inbound_nodes": [[["2184", 0, 0, {}]]]}, {"class_name": "ZeroPadding2D", "config": {"name": "2187_pad", "trainable": true, "dtype": "float32", "padding": [[1, 1], [1, 1]], "data_format": "channels_first"}, "name": "2187_pad", "inbound_nodes": [[["1653", 0, 0, {}]]]}, {"class_name": "Conv2D", "config": {"name": "2187", "trainable": true, "dtype": "float32", "filters": 16, "kernel_size": [3, 3], "strides": [1, 1], "padding": "valid", "data_format": "channels_first", "dilation_rate": [1, 1], "activation": "linear", "use_bias": true, "kernel_initializer": {"class_name": "Zeros", "config": {}}, "bias_initializer": {"class_name": "Zeros", "config": {}}, "kernel_regularizer": null, "bias_regularizer": null, "activity_regularizer": null, "kernel_constraint": null, "bias_constraint": null}, "name": "2187", "inbound_nodes": [[["2187_pad", 0, 0, {}]]]}, {"class_name": "Activation", "config": {"name": "1656", "trainable": true, "dtype": "float32", "activation": "relu"}, "name": "1656", "inbound_nodes": [[["2187", 0, 0, {}]]]}, {"class_name": "ZeroPadding2D", "config": {"name": "1657_pad", "trainable": true, "dtype": "float32", "padding": [[0, 1], [0, 1]], "data_format": "channels_first"}, "name": "1657_pad", "inbound_nodes": [[["1656", 0, 0, {}]]]}, {"class_name": "MaxPooling2D", "config": {"name": "1657", "trainable": true, "dtype": "float32", "pool_size": [2, 2], "padding": "valid", "strides": [2, 2], "data_format": "channels_first"}, "name": "1657", "inbound_nodes": [[["1657_pad", 0, 0, {}]]]}, {"class_name": "ZeroPadding2D", "config": {"name": "2190_pad", "trainable": true, "dtype": "float32", "padding": [[1, 1], [1, 1]], "data_format": "channels_first"}, "name": "2190_pad", "inbound_nodes": [[["1657", 0, 0, {}]]]}, {"class_name": "Conv2D", "config": {"name": "2190", "trainable": true, "dtype": "float32", "filters": 16, "kernel_size": [3, 3], "strides": [1, 1], "padding": "valid", "data_format": "channels_first", "dilation_rate": [1, 1], "activation": "linear", "use_bias": true, "kernel_initializer": {"class_name": "Zeros", "config": {}}, "bias_initializer": {"class_name": "Zeros", "config": {}}, "kernel_regularizer": null, "bias_regularizer": null, "activity_regularizer": null, "kernel_constraint": null, "bias_constraint": null}, "name": "2190", "inbound_nodes": [[["2190_pad", 0, 0, {}]]]}, {"class_name": "Activation", "config": {"name": "1660", "trainable": true, "dtype": "float32", "activation": "relu"}, "name": "1660", "inbound_nodes": [[["2190", 0, 0, {}]]]}, {"class_name": "ZeroPadding2D", "config": {"name": "1661_pad", "trainable": true, "dtype": "float32", "padding": [[0, 1], [0, 1]], "data_format": "channels_first"}, "name": "1661_pad", "inbound_nodes": [[["1660", 0, 0, {}]]]}, {"class_name": "MaxPooling2D", "config": {"name": "1661", "trainable": true, "dtype": "float32", "pool_size": [2, 2], "padding": "valid", "strides": [2, 2], "data_format": "channels_first"}, "name": "1661", "inbound_nodes": [[["1661_pad", 0, 0, {}]]]}, {"class_name": "ZeroPadding2D", "config": {"name": "2193_pad", "trainable": true, "dtype": "float32", "padding": [[1, 1], [1, 1]], "data_format": "channels_first"}, "name": "2193_pad", "inbound_nodes": [[["1661", 0, 0, {}]]]}, {"class_name": "Conv2D", "config": {"name": "2193", "trainable": true, "dtype": "float32", "filters": 16, "kernel_size": [3, 3], "strides": [1, 1], "padding": "valid", "data_format": "channels_first", "dilation_rate": [1, 1], "activation": "linear", "use_bias": true, "kernel_initializer": {"class_name": "Zeros", "config": {}}, "bias_initializer": {"class_name": "Zeros", "config": {}}, "kernel_regularizer": null, "bias_regularizer": null, "activity_regularizer": null, "kernel_constraint": null, "bias_constraint": null}, "name": "2193", "inbound_nodes": [[["2193_pad", 0, 0, {}]]]}, {"class_name": "Activation", "config": {"name": "1664", "trainable": true, "dtype": "float32", "activation": "relu"}, "name": "1664", "inbound_nodes": [[["2193", 0, 0, {}]]]}, {"class_name": "ZeroPadding2D", "config": {"name": "1665_pad", "trainable": true, "dtype": "float32", "padding": [[0, 1], [0, 1]], "data_format": "channels_first"}, "name": "1665_pad", "inbound_nodes": [[["1664", 0, 0, {}]]]}, {"class_name": "MaxPooling2D", "config": {"name": "1665", "trainable": true, "dtype": "float32", "pool_size": [2, 2], "padding": "valid", "strides": [2, 2], "data_format": "channels_first"}, "name": "1665", "inbound_nodes": [[["1665_pad", 0, 0, {}]]]}, {"class_name": "ZeroPadding2D", "config": {"name": "2196_pad", "trainable": true, "dtype": "float32", "padding": [[1, 1], [1, 1]], "data_format": "channels_first"}, "name": "2196_pad", "inbound_nodes": [[["1665", 0, 0, {}]]]}, {"class_name": "Conv2D", "config": {"name": "2196", "trainable": true, "dtype": "float32", "filters": 16, "kernel_size": [3, 3], "strides": [1, 1], "padding": "valid", "data_format": "channels_first", "dilation_rate": [1, 1], "activation": "linear", "use_bias": true, "kernel_initializer": {"class_name": "Zeros", "config": {}}, "bias_initializer": {"class_name": "Zeros", "config": {}}, "kernel_regularizer": null, "bias_regularizer": null, "activity_regularizer": null, "kernel_constraint": null, "bias_constraint": null}, "name": "2196", "inbound_nodes": [[["2196_pad", 0, 0, {}]]]}, {"class_name": "Activation", "config": {"name": "1668", "trainable": true, "dtype": "float32", "activation": "relu"}, "name": "1668", "inbound_nodes": [[["2196", 0, 0, {}]]]}, {"class_name": "ZeroPadding2D", "config": {"name": "1669_pad", "trainable": true, "dtype": "float32", "padding": [[0, 1], [0, 1]], "data_format": "channels_first"}, "name": "1669_pad", "inbound_nodes": [[["1668", 0, 0, {}]]]}, {"class_name": "MaxPooling2D", "config": {"name": "1669", "trainable": true, "dtype": "float32", "pool_size": [2, 2], "padding": "valid", "strides": [2, 2], "data_format": "channels_first"}, "name": "1669", "inbound_nodes": [[["1669_pad", 0, 0, {}]]]}, {"class_name": "ZeroPadding2D", "config": {"name": "2199_pad", "trainable": true, "dtype": "float32", "padding": [[1, 1], [1, 1]], "data_format": "channels_first"}, "name": "2199_pad", "inbound_nodes": [[["1669", 0, 0, {}]]]}, {"class_name": "Conv2D", "config": {"name": "2199", "trainable": true, "dtype": "float32", "filters": 16, "kernel_size": [3, 3], "strides": [1, 1], "padding": "valid", "data_format": "channels_first", "dilation_rate": [1, 1], "activation": "linear", "use_bias": true, "kernel_initializer": {"class_name": "Zeros", "config": {}}, "bias_initializer": {"class_name": "Zeros", "config": {}}, "kernel_regularizer": null, "bias_regularizer": null, "activity_regularizer": null, "kernel_constraint": null, "bias_constraint": null}, "name": "2199", "inbound_nodes": [[["2199_pad", 0, 0, {}]]]}, {"class_name": "Activation", "config": {"name": "1672", "trainable": true, "dtype": "float32", "activation": "relu"}, "name": "1672", "inbound_nodes": [[["2199", 0, 0, {}]]]}, {"class_name": "ZeroPadding2D", "config": {"name": "1673_pad", "trainable": true, "dtype": "float32", "padding": [[0, 1], [0, 1]], "data_format": "channels_first"}, "name": "1673_pad", "inbound_nodes": [[["1672", 0, 0, {}]]]}, {"class_name": "MaxPooling2D", "config": {"name": "1673", "trainable": true, "dtype": "float32", "pool_size": [2, 2], "padding": "valid", "strides": [2, 2], "data_format": "channels_first"}, "name": "1673", "inbound_nodes": [[["1673_pad", 0, 0, {}]]]}, {"class_name": "ZeroPadding2D", "config": {"name": "2202_pad", "trainable": true, "dtype": "float32", "padding": [[1, 1], [1, 1]], "data_format": "channels_first"}, "name": "2202_pad", "inbound_nodes": [[["1673", 0, 0, {}]]]}, {"class_name": "Conv2D", "config": {"name": "2202", "trainable": true, "dtype": "float32", "filters": 16, "kernel_size": [3, 3], "strides": [1, 1], "padding": "valid", "data_format": "channels_first", "dilation_rate": [1, 1], "activation": "linear", "use_bias": true, "kernel_initializer": {"class_name": "Zeros", "config": {}}, "bias_initializer": {"class_name": "Zeros", "config": {}}, "kernel_regularizer": null, "bias_regularizer": null, "activity_regularizer": null, "kernel_constraint": null, "bias_constraint": null}, "name": "2202", "inbound_nodes": [[["2202_pad", 0, 0, {}]]]}, {"class_name": "Activation", "config": {"name": "1676", "trainable": true, "dtype": "float32", "activation": "relu"}, "name": "1676", "inbound_nodes": [[["2202", 0, 0, {}]]]}, {"class_name": "ZeroPadding2D", "config": {"name": "2205_pad", "trainable": true, "dtype": "float32", "padding": [[2, 2], [2, 2]], "data_format": "channels_first"}, "name": "2205_pad", "inbound_nodes": [[["1676", 0, 0, {}]]]}, {"class_name": "Conv2D", "config": {"name": "2205", "trainable": true, "dtype": "float32", "filters": 16, "kernel_size": [3, 3], "strides": [1, 1], "padding": "valid", "data_format": "channels_first", "dilation_rate": [2, 2], "activation": "linear", "use_bias": true, "kernel_initializer": {"class_name": "Zeros", "config": {}}, "bias_initializer": {"class_name": "Zeros", "config": {}}, "kernel_regularizer": null, "bias_regularizer": null, "activity_regularizer": null, "kernel_constraint": null, "bias_constraint": null}, "name": "2205", "inbound_nodes": [[["2205_pad", 0, 0, {}]]]}, {"class_name": "Activation", "config": {"name": "1679", "trainable": true, "dtype": "float32", "activation": "relu"}, "name": "1679", "inbound_nodes": [[["2205", 0, 0, {}]]]}, {"class_name": "Concatenate", "config": {"name": "1680", "trainable": true, "dtype": "float32", "axis": 1}, "name": "1680", "inbound_nodes": [[["1679", 0, 0, {}], ["1676", 0, 0, {}]]]}, {"class_name": "ZeroPadding2D", "config": {"name": "2208_pad", "trainable": true, "dtype": "float32", "padding": [[1, 1], [1, 1]], "data_format": "channels_first"}, "name": "2208_pad", "inbound_nodes": [[["1680", 0, 0, {}]]]}, {"class_name": "Conv2D", "config": {"name": "2208", "trainable": true, "dtype": "float32", "filters": 16, "kernel_size": [3, 3], "strides": [1, 1], "padding": "valid", "data_format": "channels_first", "dilation_rate": [1, 1], "activation": "linear", "use_bias": true, "kernel_initializer": {"class_name": "Zeros", "config": {}}, "bias_initializer": {"class_name": "Zeros", "config": {}}, "kernel_regularizer": null, "bias_regularizer": null, "activity_regularizer": null, "kernel_constraint": null, "bias_constraint": null}, "name": "2208", "inbound_nodes": [[["2208_pad", 0, 0, {}]]]}, {"class_name": "Activation", "config": {"name": "1683", "trainable": true, "dtype": "float32", "activation": "relu"}, "name": "1683", "inbound_nodes": [[["2208", 0, 0, {}]]]}, {"class_name": "UpSampling2D", "config": {"name": "1700", "trainable": true, "dtype": "float32", "size": [2, 2], "data_format": "channels_first", "interpolation": "nearest"}, "name": "1700", "inbound_nodes": [[["1683", 0, 0, {}]]]}, {"class_name": "Concatenate", "config": {"name": "1701", "trainable": true, "dtype": "float32", "axis": 1}, "name": "1701", "inbound_nodes": [[["1700", 0, 0, {}], ["1672", 0, 0, {}]]]}, {"class_name": "ZeroPadding2D", "config": {"name": "2211_pad", "trainable": true, "dtype": "float32", "padding": [[1, 1], [1, 1]], "data_format": "channels_first"}, "name": "2211_pad", "inbound_nodes": [[["1701", 0, 0, {}]]]}, {"class_name": "Conv2D", "config": {"name": "2211", "trainable": true, "dtype": "float32", "filters": 16, "kernel_size": [3, 3], "strides": [1, 1], "padding": "valid", "data_format": "channels_first", "dilation_rate": [1, 1], "activation": "linear", "use_bias": true, "kernel_initializer": {"class_name": "Zeros", "config": {}}, "bias_initializer": {"class_name": "Zeros", "config": {}}, "kernel_regularizer": null, "bias_regularizer": null, "activity_regularizer": null, "kernel_constraint": null, "bias_constraint": null}, "name": "2211", "inbound_nodes": [[["2211_pad", 0, 0, {}]]]}, {"class_name": "Activation", "config": {"name": "1704", "trainable": true, "dtype": "float32", "activation": "relu"}, "name": "1704", "inbound_nodes": [[["2211", 0, 0, {}]]]}, {"class_name": "UpSampling2D", "config": {"name": "1721", "trainable": true, "dtype": "float32", "size": [2, 2], "data_format": "channels_first", "interpolation": "nearest"}, "name": "1721", "inbound_nodes": [[["1704", 0, 0, {}]]]}, {"class_name": "Concatenate", "config": {"name": "1722", "trainable": true, "dtype": "float32", "axis": 1}, "name": "1722", "inbound_nodes": [[["1721", 0, 0, {}], ["1668", 0, 0, {}]]]}, {"class_name": "ZeroPadding2D", "config": {"name": "2214_pad", "trainable": true, "dtype": "float32", "padding": [[1, 1], [1, 1]], "data_format": "channels_first"}, "name": "2214_pad", "inbound_nodes": [[["1722", 0, 0, {}]]]}, {"class_name": "Conv2D", "config": {"name": "2214", "trainable": true, "dtype": "float32", "filters": 16, "kernel_size": [3, 3], "strides": [1, 1], "padding": "valid", "data_format": "channels_first", "dilation_rate": [1, 1], "activation": "linear", "use_bias": true, "kernel_initializer": {"class_name": "Zeros", "config": {}}, "bias_initializer": {"class_name": "Zeros", "config": {}}, "kernel_regularizer": null, "bias_regularizer": null, "activity_regularizer": null, "kernel_constraint": null, "bias_constraint": null}, "name": "2214", "inbound_nodes": [[["2214_pad", 0, 0, {}]]]}, {"class_name": "Activation", "config": {"name": "1725", "trainable": true, "dtype": "float32", "activation": "relu"}, "name": "1725", "inbound_nodes": [[["2214", 0, 0, {}]]]}, {"class_name": "UpSampling2D", "config": {"name": "1742", "trainable": true, "dtype": "float32", "size": [2, 2], "data_format": "channels_first", "interpolation": "nearest"}, "name": "1742", "inbound_nodes": [[["1725", 0, 0, {}]]]}, {"class_name": "Concatenate", "config": {"name": "1743", "trainable": true, "dtype": "float32", "axis": 1}, "name": "1743", "inbound_nodes": [[["1742", 0, 0, {}], ["1664", 0, 0, {}]]]}, {"class_name": "ZeroPadding2D", "config": {"name": "2217_pad", "trainable": true, "dtype": "float32", "padding": [[1, 1], [1, 1]], "data_format": "channels_first"}, "name": "2217_pad", "inbound_nodes": [[["1743", 0, 0, {}]]]}, {"class_name": "Conv2D", "config": {"name": "2217", "trainable": true, "dtype": "float32", "filters": 16, "kernel_size": [3, 3], "strides": [1, 1], "padding": "valid", "data_format": "channels_first", "dilation_rate": [1, 1], "activation": "linear", "use_bias": true, "kernel_initializer": {"class_name": "Zeros", "config": {}}, "bias_initializer": {"class_name": "Zeros", "config": {}}, "kernel_regularizer": null, "bias_regularizer": null, "activity_regularizer": null, "kernel_constraint": null, "bias_constraint": null}, "name": "2217", "inbound_nodes": [[["2217_pad", 0, 0, {}]]]}, {"class_name": "Activation", "config": {"name": "1746", "trainable": true, "dtype": "float32", "activation": "relu"}, "name": "1746", "inbound_nodes": [[["2217", 0, 0, {}]]]}, {"class_name": "UpSampling2D", "config": {"name": "1763", "trainable": true, "dtype": "float32", "size": [2, 2], "data_format": "channels_first", "interpolation": "nearest"}, "name": "1763", "inbound_nodes": [[["1746", 0, 0, {}]]]}, {"class_name": "Concatenate", "config": {"name": "1764", "trainable": true, "dtype": "float32", "axis": 1}, "name": "1764", "inbound_nodes": [[["1763", 0, 0, {}], ["1660", 0, 0, {}]]]}, {"class_name": "ZeroPadding2D", "config": {"name": "2220_pad", "trainable": true, "dtype": "float32", "padding": [[1, 1], [1, 1]], "data_format": "channels_first"}, "name": "2220_pad", "inbound_nodes": [[["1764", 0, 0, {}]]]}, {"class_name": "Conv2D", "config": {"name": "2220", "trainable": true, "dtype": "float32", "filters": 16, "kernel_size": [3, 3], "strides": [1, 1], "padding": "valid", "data_format": "channels_first", "dilation_rate": [1, 1], "activation": "linear", "use_bias": true, "kernel_initializer": {"class_name": "Zeros", "config": {}}, "bias_initializer": {"class_name": "Zeros", "config": {}}, "kernel_regularizer": null, "bias_regularizer": null, "activity_regularizer": null, "kernel_constraint": null, "bias_constraint": null}, "name": "2220", "inbound_nodes": [[["2220_pad", 0, 0, {}]]]}, {"class_name": "Activation", "config": {"name": "1767", "trainable": true, "dtype": "float32", "activation": "relu"}, "name": "1767", "inbound_nodes": [[["2220", 0, 0, {}]]]}, {"class_name": "UpSampling2D", "config": {"name": "1784", "trainable": true, "dtype": "float32", "size": [2, 2], "data_format": "channels_first", "interpolation": "nearest"}, "name": "1784", "inbound_nodes": [[["1767", 0, 0, {}]]]}, {"class_name": "Concatenate", "config": {"name": "1785", "trainable": true, "dtype": "float32", "axis": 1}, "name": "1785", "inbound_nodes": [[["1784", 0, 0, {}], ["1656", 0, 0, {}]]]}, {"class_name": "ZeroPadding2D", "config": {"name": "2223_pad", "trainable": true, "dtype": "float32", "padding": [[1, 1], [1, 1]], "data_format": "channels_first"}, "name": "2223_pad", "inbound_nodes": [[["1785", 0, 0, {}]]]}, {"class_name": "Conv2D", "config": {"name": "2223", "trainable": true, "dtype": "float32", "filters": 64, "kernel_size": [3, 3], "strides": [1, 1], "padding": "valid", "data_format": "channels_first", "dilation_rate": [1, 1], "activation": "linear", "use_bias": true, "kernel_initializer": {"class_name": "Zeros", "config": {}}, "bias_initializer": {"class_name": "Zeros", "config": {}}, "kernel_regularizer": null, "bias_regularizer": null, "activity_regularizer": null, "kernel_constraint": null, "bias_constraint": null}, "name": "2223", "inbound_nodes": [[["2223_pad", 0, 0, {}]]]}, {"class_name": "Activation", "config": {"name": "1788", "trainable": true, "dtype": "float32", "activation": "relu"}, "name": "1788", "inbound_nodes": [[["2223", 0, 0, {}]]]}, {"class_name": "Add", "config": {"name": "1789", "trainable": true, "dtype": "float32"}, "name": "1789", "inbound_nodes": [[["1788", 0, 0, {}], ["1653", 0, 0, {}]]]}, {"class_name": "ZeroPadding2D", "config": {"name": "1791_pad", "trainable": true, "dtype": "float32", "padding": [[1, 1], [1, 1]], "data_format": "channels_first"}, "name": "1791_pad", "inbound_nodes": [[["1632", 0, 0, {}]]]}, {"class_name": "ZeroPadding2D", "config": {"name": "1809_pad", "trainable": true, "dtype": "float32", "padding": [[1, 1], [1, 1]], "data_format": "channels_first"}, "name": "1809_pad", "inbound_nodes": [[["1500", 0, 0, {}]]]}, {"class_name": "ZeroPadding2D", "config": {"name": "1827_pad", "trainable": true, "dtype": "float32", "padding": [[1, 1], [1, 1]], "data_format": "channels_first"}, "name": "1827_pad", "inbound_nodes": [[["1393", 0, 0, {}]]]}, {"class_name": "ZeroPadding2D", "config": {"name": "1845_pad", "trainable": true, "dtype": "float32", "padding": [[1, 1], [1, 1]], "data_format": "channels_first"}, "name": "1845_pad", "inbound_nodes": [[["1311", 0, 0, {}]]]}, {"class_name": "ZeroPadding2D", "config": {"name": "1863_pad", "trainable": true, "dtype": "float32", "padding": [[1, 1], [1, 1]], "data_format": "channels_first"}, "name": "1863_pad", "inbound_nodes": [[["1265", 0, 0, {}]]]}, {"class_name": "ZeroPadding2D", "config": {"name": "1790_pad", "trainable": true, "dtype": "float32", "padding": [[1, 1], [1, 1]], "data_format": "channels_first"}, "name": "1790_pad", "inbound_nodes": [[["1789", 0, 0, {}]]]}, {"class_name": "Conv2D", "config": {"name": "1791", "trainable": true, "dtype": "float32", "filters": 1, "kernel_size": [3, 3], "strides": [1, 1], "padding": "valid", "data_format": "channels_first", "dilation_rate": [1, 1], "activation": "linear", "use_bias": true, "kernel_initializer": {"class_name": "Zeros", "config": {}}, "bias_initializer": {"class_name": "Zeros", "config": {}}, "kernel_regularizer": null, "bias_regularizer": null, "activity_regularizer": null, "kernel_constraint": null, "bias_constraint": null}, "name": "1791", "inbound_nodes": [[["1791_pad", 0, 0, {}]]]}, {"class_name": "Conv2D", "config": {"name": "1809", "trainable": true, "dtype": "float32", "filters": 1, "kernel_size": [3, 3], "strides": [1, 1], "padding": "valid", "data_format": "channels_first", "dilation_rate": [1, 1], "activation": "linear", "use_bias": true, "kernel_initializer": {"class_name": "Zeros", "config": {}}, "bias_initializer": {"class_name": "Zeros", "config": {}}, "kernel_regularizer": null, "bias_regularizer": null, "activity_regularizer": null, "kernel_constraint": null, "bias_constraint": null}, "name": "1809", "inbound_nodes": [[["1809_pad", 0, 0, {}]]]}, {"class_name": "Conv2D", "config": {"name": "1827", "trainable": true, "dtype": "float32", "filters": 1, "kernel_size": [3, 3], "strides": [1, 1], "padding": "valid", "data_format": "channels_first", "dilation_rate": [1, 1], "activation": "linear", "use_bias": true, "kernel_initializer": {"class_name": "Zeros", "config": {}}, "bias_initializer": {"class_name": "Zeros", "config": {}}, "kernel_regularizer": null, "bias_regularizer": null, "activity_regularizer": null, "kernel_constraint": null, "bias_constraint": null}, "name": "1827", "inbound_nodes": [[["1827_pad", 0, 0, {}]]]}, {"class_name": "Conv2D", "config": {"name": "1845", "trainable": true, "dtype": "float32", "filters": 1, "kernel_size": [3, 3], "strides": [1, 1], "padding": "valid", "data_format": "channels_first", "dilation_rate": [1, 1], "activation": "linear", "use_bias": true, "kernel_initializer": {"class_name": "Zeros", "config": {}}, "bias_initializer": {"class_name": "Zeros", "config": {}}, "kernel_regularizer": null, "bias_regularizer": null, "activity_regularizer": null, "kernel_constraint": null, "bias_constraint": null}, "name": "1845", "inbound_nodes": [[["1845_pad", 0, 0, {}]]]}, {"class_name": "Conv2D", "config": {"name": "1863", "trainable": true, "dtype": "float32", "filters": 1, "kernel_size": [3, 3], "strides": [1, 1], "padding": "valid", "data_format": "channels_first", "dilation_rate": [1, 1], "activation": "linear", "use_bias": true, "kernel_initializer": {"class_name": "Zeros", "config": {}}, "bias_initializer": {"class_name": "Zeros", "config": {}}, "kernel_regularizer": null, "bias_regularizer": null, "activity_regularizer": null, "kernel_constraint": null, "bias_constraint": null}, "name": "1863", "inbound_nodes": [[["1863_pad", 0, 0, {}]]]}, {"class_name": "Conv2D", "config": {"name": "1790", "trainable": true, "dtype": "float32", "filters": 1, "kernel_size": [3, 3], "strides": [1, 1], "padding": "valid", "data_format": "channels_first", "dilation_rate": [1, 1], "activation": "linear", "use_bias": true, "kernel_initializer": {"class_name": "Zeros", "config": {}}, "bias_initializer": {"class_name": "Zeros", "config": {}}, "kernel_regularizer": null, "bias_regularizer": null, "activity_regularizer": null, "kernel_constraint": null, "bias_constraint": null}, "name": "1790", "inbound_nodes": [[["1790_pad", 0, 0, {}]]]}, {"class_name": "UpSampling2D", "config": {"name": "1808", "trainable": true, "dtype": "float32", "size": [2, 2], "data_format": "channels_first", "interpolation": "nearest"}, "name": "1808", "inbound_nodes": [[["1791", 0, 0, {}]]]}, {"class_name": "UpSampling2D", "config": {"name": "1826", "trainable": true, "dtype": "float32", "size": [4, 4], "data_format": "channels_first", "interpolation": "nearest"}, "name": "1826", "inbound_nodes": [[["1809", 0, 0, {}]]]}, {"class_name": "UpSampling2D", "config": {"name": "1844", "trainable": true, "dtype": "float32", "size": [8, 8], "data_format": "channels_first", "interpolation": "nearest"}, "name": "1844", "inbound_nodes": [[["1827", 0, 0, {}]]]}, {"class_name": "UpSampling2D", "config": {"name": "1862", "trainable": true, "dtype": "float32", "size": [16, 16], "data_format": "channels_first", "interpolation": "nearest"}, "name": "1862", "inbound_nodes": [[["1845", 0, 0, {}]]]}, {"class_name": "UpSampling2D", "config": {"name": "1880", "trainable": true, "dtype": "float32", "size": [32, 32], "data_format": "channels_first", "interpolation": "nearest"}, "name": "1880", "inbound_nodes": [[["1863", 0, 0, {}]]]}, {"class_name": "Concatenate", "config": {"name": "1881", "trainable": true, "dtype": "float32", "axis": 1}, "name": "1881", "inbound_nodes": [[["1790", 0, 0, {}], ["1808", 0, 0, {}], ["1826", 0, 0, {}], ["1844", 0, 0, {}], ["1862", 0, 0, {}], ["1880", 0, 0, {}]]]}, {"class_name": "Conv2D", "config": {"name": "1882", "trainable": true, "dtype": "float32", "filters": 1, "kernel_size": [1, 1], "strides": [1, 1], "padding": "valid", "data_format": "channels_first", "dilation_rate": [1, 1], "activation": "linear", "use_bias": true, "kernel_initializer": {"class_name": "Zeros", "config": {}}, "bias_initializer": {"class_name": "Zeros", "config": {}}, "kernel_regularizer": null, "bias_regularizer": null, "activity_regularizer": null, "kernel_constraint": null, "bias_constraint": null}, "name": "1882", "inbound_nodes": [[["1881", 0, 0, {}]]]}, {"class_name": "Activation", "config": {"name": "output_0", "trainable": true, "dtype": "float32", "activation": "sigmoid"}, "name": "output_0", "inbound_nodes": [[["1882", 0, 0, {}]]]}, {"class_name": "Activation", "config": {"name": "output_1", "trainable": true, "dtype": "float32", "activation": "sigmoid"}, "name": "output_1", "inbound_nodes": [[["1790", 0, 0, {}]]]}, {"class_name": "Activation", "config": {"name": "output_2", "trainable": true, "dtype": "float32", "activation": "sigmoid"}, "name": "output_2", "inbound_nodes": [[["1808", 0, 0, {}]]]}, {"class_name": "Activation", "config": {"name": "output_3", "trainable": true, "dtype": "float32", "activation": "sigmoid"}, "name": "output_3", "inbound_nodes": [[["1826", 0, 0, {}]]]}, {"class_name": "Activation", "config": {"name": "output_4", "trainable": true, "dtype": "float32", "activation": "sigmoid"}, "name": "output_4", "inbound_nodes": [[["1844", 0, 0, {}]]]}, {"class_name": "Activation", "config": {"name": "output_5", "trainable": true, "dtype": "float32", "activation": "sigmoid"}, "name": "output_5", "inbound_nodes": [[["1862", 0, 0, {}]]]}, {"class_name": "Activation", "config": {"name": "output_6", "trainable": true, "dtype": "float32", "activation": "sigmoid"}, "name": "output_6", "inbound_nodes": [[["1880", 0, 0, {}]]]}], "input_layers": [["input_0", 0, 0]], "output_layers": [["output_0", 0, 0], ["output_1", 0, 0], ["output_2", 0, 0], ["output_3", 0, 0], ["output_4", 0, 0], ["output_5", 0, 0], ["output_6", 0, 0]]}}}, "weightsManifest": [{"paths": ["group1-shard1of42.bin", "group1-shard2of42.bin", "group1-shard3of42.bin", "group1-shard4of42.bin", "group1-shard5of42.bin", "group1-shard6of42.bin", "group1-shard7of42.bin", "group1-shard8of42.bin", "group1-shard9of42.bin", "group1-shard10of42.bin", "group1-shard11of42.bin", "group1-shard12of42.bin", "group1-shard13of42.bin", "group1-shard14of42.bin", "group1-shard15of42.bin", "group1-shard16of42.bin", "group1-shard17of42.bin", "group1-shard18of42.bin", "group1-shard19of42.bin", "group1-shard20of42.bin", "group1-shard21of42.bin", "group1-shard22of42.bin", "group1-shard23of42.bin", "group1-shard24of42.bin", "group1-shard25of42.bin", "group1-shard26of42.bin", "group1-shard27of42.bin", "group1-shard28of42.bin", "group1-shard29of42.bin", "group1-shard30of42.bin", "group1-shard31of42.bin", "group1-shard32of42.bin", "group1-shard33of42.bin", "group1-shard34of42.bin", "group1-shard35of42.bin", "group1-shard36of42.bin", "group1-shard37of42.bin", "group1-shard38of42.bin", "group1-shard39of42.bin", "group1-shard40of42.bin", "group1-shard41of42.bin", "group1-shard42of42.bin"], "weights": [{"name": "1790/kernel", "shape": [3, 3, 64, 1], "dtype": "float32"}, {"name": "1790/bias", "shape": [1], "dtype": "float32"}, {"name": "1791/kernel", "shape": [3, 3, 64, 1], "dtype": "float32"}, {"name": "1791/bias", "shape": [1], "dtype": "float32"}, {"name": "1809/kernel", "shape": [3, 3, 128, 1], "dtype": "float32"}, {"name": "1809/bias", "shape": [1], "dtype": "float32"}, {"name": "1827/kernel", "shape": [3, 3, 256, 1], "dtype": "float32"}, {"name": "1827/bias", "shape": [1], "dtype": "float32"}, {"name": "1845/kernel", "shape": [3, 3, 512, 1], "dtype": "float32"}, {"name": "1845/bias", "shape": [1], "dtype": "float32"}, {"name": "1863/kernel", "shape": [3, 3, 512, 1], "dtype": "float32"}, {"name": "1863/bias", "shape": [1], "dtype": "float32"}, {"name": "1882/kernel", "shape": [1, 1, 6, 1], "dtype": "float32"}, {"name": "1882/bias", "shape": [1], "dtype": "float32"}, {"name": "1890/kernel", "shape": [3, 3, 3, 64], "dtype": "float32"}, {"name": "1890/bias", "shape": [64], "dtype": "float32"}, {"name": "1893/kernel", "shape": [3, 3, 64, 32], "dtype": "float32"}, {"name": "1893/bias", "shape": [32], "dtype": "float32"}, {"name": "1896/kernel", "shape": [3, 3, 32, 32], "dtype": "float32"}, {"name": "1896/bias", "shape": [32], "dtype": "float32"}, {"name": "1899/kernel", "shape": [3, 3, 32, 32], "dtype": "float32"}, {"name": "1899/bias", "shape": [32], "dtype": "float32"}, {"name": "1902/kernel", "shape": [3, 3, 32, 32], "dtype": "float32"}, {"name": "1902/bias", "shape": [32], "dtype": "float32"}, {"name": "1905/kernel", "shape": [3, 3, 32, 32], "dtype": "float32"}, {"name": "1905/bias", "shape": [32], "dtype": "float32"}, {"name": "1908/kernel", "shape": [3, 3, 32, 32], "dtype": "float32"}, {"name": "1908/bias", "shape": [32], "dtype": "float32"}, {"name": "1911/kernel", "shape": [3, 3, 32, 32], "dtype": "float32"}, {"name": "1911/bias", "shape": [32], "dtype": "float32"}, {"name": "1914/kernel", "shape": [3, 3, 64, 32], "dtype": "float32"}, {"name": "1914/bias", "shape": [32], "dtype": "float32"}, {"name": "1917/kernel", "shape": [3, 3, 64, 32], "dtype": "float32"}, {"name": "1917/bias", "shape": [32], "dtype": "float32"}, {"name": "1920/kernel", "shape": [3, 3, 64, 32], "dtype": "float32"}, {"name": "1920/bias", "shape": [32], "dtype": "float32"}, {"name": "1923/kernel", "shape": [3, 3, 64, 32], "dtype": "float32"}, {"name": "1923/bias", "shape": [32], "dtype": "float32"}, {"name": "1926/kernel", "shape": [3, 3, 64, 32], "dtype": "float32"}, {"name": "1926/bias", "shape": [32], "dtype": "float32"}, {"name": "1929/kernel", "shape": [3, 3, 64, 64], "dtype": "float32"}, {"name": "1929/bias", "shape": [64], "dtype": "float32"}, {"name": "1932/kernel", "shape": [3, 3, 64, 128], "dtype": "float32"}, {"name": "1932/bias", "shape": [128], "dtype": "float32"}, {"name": "1935/kernel", "shape": [3, 3, 128, 32], "dtype": "float32"}, {"name": "1935/bias", "shape": [32], "dtype": "float32"}, {"name": "1938/kernel", "shape": [3, 3, 32, 32], "dtype": "float32"}, {"name": "1938/bias", "shape": [32], "dtype": "float32"}, {"name": "1941/kernel", "shape": [3, 3, 32, 32], "dtype": "float32"}, {"name": "1941/bias", "shape": [32], "dtype": "float32"}, {"name": "1944/kernel", "shape": [3, 3, 32, 32], "dtype": "float32"}, {"name": "1944/bias", "shape": [32], "dtype": "float32"}, {"name": "1947/kernel", "shape": [3, 3, 32, 32], "dtype": "float32"}, {"name": "1947/bias", "shape": [32], "dtype": "float32"}, {"name": "1950/kernel", "shape": [3, 3, 32, 32], "dtype": "float32"}, {"name": "1950/bias", "shape": [32], "dtype": "float32"}, {"name": "1953/kernel", "shape": [3, 3, 64, 32], "dtype": "float32"}, {"name": "1953/bias", "shape": [32], "dtype": "float32"}, {"name": "1956/kernel", "shape": [3, 3, 64, 32], "dtype": "float32"}, {"name": "1956/bias", "shape": [32], "dtype": "float32"}, {"name": "1959/kernel", "shape": [3, 3, 64, 32], "dtype": "float32"}, {"name": "1959/bias", "shape": [32], "dtype": "float32"}, {"name": "1962/kernel", "shape": [3, 3, 64, 32], "dtype": "float32"}, {"name": "1962/bias", "shape": [32], "dtype": "float32"}, {"name": "1965/kernel", "shape": [3, 3, 64, 128], "dtype": "float32"}, {"name": "1965/bias", "shape": [128], "dtype": "float32"}, {"name": "1968/kernel", "shape": [3, 3, 128, 256], "dtype": "float32"}, {"name": "1968/bias", "shape": [256], "dtype": "float32"}, {"name": "1971/kernel", "shape": [3, 3, 256, 64], "dtype": "float32"}, {"name": "1971/bias", "shape": [64], "dtype": "float32"}, {"name": "1974/kernel", "shape": [3, 3, 64, 64], "dtype": "float32"}, {"name": "1974/bias", "shape": [64], "dtype": "float32"}, {"name": "1977/kernel", "shape": [3, 3, 64, 64], "dtype": "float32"}, {"name": "1977/bias", "shape": [64], "dtype": "float32"}, {"name": "1980/kernel", "shape": [3, 3, 64, 64], "dtype": "float32"}, {"name": "1980/bias", "shape": [64], "dtype": "float32"}, {"name": "1983/kernel", "shape": [3, 3, 64, 64], "dtype": "float32"}, {"name": "1983/bias", "shape": [64], "dtype": "float32"}, {"name": "1986/kernel", "shape": [3, 3, 128, 64], "dtype": "float32"}, {"name": "1986/bias", "shape": [64], "dtype": "float32"}, {"name": "1989/kernel", "shape": [3, 3, 128, 64], "dtype": "float32"}, {"name": "1989/bias", "shape": [64], "dtype": "float32"}, {"name": "1992/kernel", "shape": [3, 3, 128, 64], "dtype": "float32"}, {"name": "1992/bias", "shape": [64], "dtype": "float32"}, {"name": "1995/kernel", "shape": [3, 3, 128, 256], "dtype": "float32"}, {"name": "1995/bias", "shape": [256], "dtype": "float32"}, {"name": "1998/kernel", "shape": [3, 3, 256, 512], "dtype": "float32"}, {"name": "1998/bias", "shape": [512], "dtype": "float32"}, {"name": "2001/kernel", "shape": [3, 3, 512, 128], "dtype": "float32"}, {"name": "2001/bias", "shape": [128], "dtype": "float32"}, {"name": "2004/kernel", "shape": [3, 3, 128, 128], "dtype": "float32"}, {"name": "2004/bias", "shape": [128], "dtype": "float32"}, {"name": "2007/kernel", "shape": [3, 3, 128, 128], "dtype": "float32"}, {"name": "2007/bias", "shape": [128], "dtype": "float32"}, {"name": "2010/kernel", "shape": [3, 3, 128, 128], "dtype": "float32"}, {"name": "2010/bias", "shape": [128], "dtype": "float32"}, {"name": "2013/kernel", "shape": [3, 3, 256, 128], "dtype": "float32"}, {"name": "2013/bias", "shape": [128], "dtype": "float32"}, {"name": "2016/kernel", "shape": [3, 3, 256, 128], "dtype": "float32"}, {"name": "2016/bias", "shape": [128], "dtype": "float32"}, {"name": "2019/kernel", "shape": [3, 3, 256, 512], "dtype": "float32"}, {"name": "2019/bias", "shape": [512], "dtype": "float32"}, {"name": "2022/kernel", "shape": [3, 3, 512, 512], "dtype": "float32"}, {"name": "2022/bias", "shape": [512], "dtype": "float32"}, {"name": "2025/kernel", "shape": [3, 3, 512, 256], "dtype": "float32"}, {"name": "2025/bias", "shape": [256], "dtype": "float32"}, {"name": "2028/kernel", "shape": [3, 3, 256, 256], "dtype": "float32"}, {"name": "2028/bias", "shape": [256], "dtype": "float32"}, {"name": "2031/kernel", "shape": [3, 3, 256, 256], "dtype": "float32"}, {"name": "2031/bias", "shape": [256], "dtype": "float32"}, {"name": "2034/kernel", "shape": [3, 3, 256, 256], "dtype": "float32"}, {"name": "2034/bias", "shape": [256], "dtype": "float32"}, {"name": "2037/kernel", "shape": [3, 3, 512, 256], "dtype": "float32"}, {"name": "2037/bias", "shape": [256], "dtype": "float32"}, {"name": "2040/kernel", "shape": [3, 3, 512, 256], "dtype": "float32"}, {"name": "2040/bias", "shape": [256], "dtype": "float32"}, {"name": "2043/kernel", "shape": [3, 3, 512, 512], "dtype": "float32"}, {"name": "2043/bias", "shape": [512], "dtype": "float32"}, {"name": "2046/kernel", "shape": [3, 3, 512, 512], "dtype": "float32"}, {"name": "2046/bias", "shape": [512], "dtype": "float32"}, {"name": "2049/kernel", "shape": [3, 3, 512, 256], "dtype": "float32"}, {"name": "2049/bias", "shape": [256], "dtype": "float32"}, {"name": "2052/kernel", "shape": [3, 3, 256, 256], "dtype": "float32"}, {"name": "2052/bias", "shape": [256], "dtype": "float32"}, {"name": "2055/kernel", "shape": [3, 3, 256, 256], "dtype": "float32"}, {"name": "2055/bias", "shape": [256], "dtype": "float32"}, {"name": "2058/kernel", "shape": [3, 3, 256, 256], "dtype": "float32"}, {"name": "2058/bias", "shape": [256], "dtype": "float32"}, {"name": "2061/kernel", "shape": [3, 3, 512, 256], "dtype": "float32"}, {"name": "2061/bias", "shape": [256], "dtype": "float32"}, {"name": "2064/kernel", "shape": [3, 3, 512, 256], "dtype": "float32"}, {"name": "2064/bias", "shape": [256], "dtype": "float32"}, {"name": "2067/kernel", "shape": [3, 3, 512, 512], "dtype": "float32"}, {"name": "2067/bias", "shape": [512], "dtype": "float32"}, {"name": "2070/kernel", "shape": [3, 3, 1024, 512], "dtype": "float32"}, {"name": "2070/bias", "shape": [512], "dtype": "float32"}, {"name": "2073/kernel", "shape": [3, 3, 512, 256], "dtype": "float32"}, {"name": "2073/bias", "shape": [256], "dtype": "float32"}, {"name": "2076/kernel", "shape": [3, 3, 256, 256], "dtype": "float32"}, {"name": "2076/bias", "shape": [256], "dtype": "float32"}, {"name": "2079/kernel", "shape": [3, 3, 256, 256], "dtype": "float32"}, {"name": "2079/bias", "shape": [256], "dtype": "float32"}, {"name": "2082/kernel", "shape": [3, 3, 256, 256], "dtype": "float32"}, {"name": "2082/bias", "shape": [256], "dtype": "float32"}, {"name": "2085/kernel", "shape": [3, 3, 512, 256], "dtype": "float32"}, {"name": "2085/bias", "shape": [256], "dtype": "float32"}, {"name": "2088/kernel", "shape": [3, 3, 512, 256], "dtype": "float32"}, {"name": "2088/bias", "shape": [256], "dtype": "float32"}, {"name": "2091/kernel", "shape": [3, 3, 512, 512], "dtype": "float32"}, {"name": "2091/bias", "shape": [512], "dtype": "float32"}, {"name": "2094/kernel", "shape": [3, 3, 1024, 256], "dtype": "float32"}, {"name": "2094/bias", "shape": [256], "dtype": "float32"}, {"name": "2097/kernel", "shape": [3, 3, 256, 128], "dtype": "float32"}, {"name": "2097/bias", "shape": [128], "dtype": "float32"}, {"name": "2100/kernel", "shape": [3, 3, 128, 128], "dtype": "float32"}, {"name": "2100/bias", "shape": [128], "dtype": "float32"}, {"name": "2103/kernel", "shape": [3, 3, 128, 128], "dtype": "float32"}, {"name": "2103/bias", "shape": [128], "dtype": "float32"}, {"name": "2106/kernel", "shape": [3, 3, 128, 128], "dtype": "float32"}, {"name": "2106/bias", "shape": [128], "dtype": "float32"}, {"name": "2109/kernel", "shape": [3, 3, 256, 128], "dtype": "float32"}, {"name": "2109/bias", "shape": [128], "dtype": "float32"}, {"name": "2112/kernel", "shape": [3, 3, 256, 128], "dtype": "float32"}, {"name": "2112/bias", "shape": [128], "dtype": "float32"}, {"name": "2115/kernel", "shape": [3, 3, 256, 256], "dtype": "float32"}, {"name": "2115/bias", "shape": [256], "dtype": "float32"}, {"name": "2118/kernel", "shape": [3, 3, 512, 128], "dtype": "float32"}, {"name": "2118/bias", "shape": [128], "dtype": "float32"}, {"name": "2121/kernel", "shape": [3, 3, 128, 64], "dtype": "float32"}, {"name": "2121/bias", "shape": [64], "dtype": "float32"}, {"name": "2124/kernel", "shape": [3, 3, 64, 64], "dtype": "float32"}, {"name": "2124/bias", "shape": [64], "dtype": "float32"}, {"name": "2127/kernel", "shape": [3, 3, 64, 64], "dtype": "float32"}, {"name": "2127/bias", "shape": [64], "dtype": "float32"}, {"name": "2130/kernel", "shape": [3, 3, 64, 64], "dtype": "float32"}, {"name": "2130/bias", "shape": [64], "dtype": "float32"}, {"name": "2133/kernel", "shape": [3, 3, 64, 64], "dtype": "float32"}, {"name": "2133/bias", "shape": [64], "dtype": "float32"}, {"name": "2136/kernel", "shape": [3, 3, 128, 64], "dtype": "float32"}, {"name": "2136/bias", "shape": [64], "dtype": "float32"}, {"name": "2139/kernel", "shape": [3, 3, 128, 64], "dtype": "float32"}, {"name": "2139/bias", "shape": [64], "dtype": "float32"}, {"name": "2142/kernel", "shape": [3, 3, 128, 64], "dtype": "float32"}, {"name": "2142/bias", "shape": [64], "dtype": "float32"}, {"name": "2145/kernel", "shape": [3, 3, 128, 128], "dtype": "float32"}, {"name": "2145/bias", "shape": [128], "dtype": "float32"}, {"name": "2148/kernel", "shape": [3, 3, 256, 64], "dtype": "float32"}, {"name": "2148/bias", "shape": [64], "dtype": "float32"}, {"name": "2151/kernel", "shape": [3, 3, 64, 32], "dtype": "float32"}, {"name": "2151/bias", "shape": [32], "dtype": "float32"}, {"name": "2154/kernel", "shape": [3, 3, 32, 32], "dtype": "float32"}, {"name": "2154/bias", "shape": [32], "dtype": "float32"}, {"name": "2157/kernel", "shape": [3, 3, 32, 32], "dtype": "float32"}, {"name": "2157/bias", "shape": [32], "dtype": "float32"}, {"name": "2160/kernel", "shape": [3, 3, 32, 32], "dtype": "float32"}, {"name": "2160/bias", "shape": [32], "dtype": "float32"}, {"name": "2163/kernel", "shape": [3, 3, 32, 32], "dtype": "float32"}, {"name": "2163/bias", "shape": [32], "dtype": "float32"}, {"name": "2166/kernel", "shape": [3, 3, 32, 32], "dtype": "float32"}, {"name": "2166/bias", "shape": [32], "dtype": "float32"}, {"name": "2169/kernel", "shape": [3, 3, 64, 32], "dtype": "float32"}, {"name": "2169/bias", "shape": [32], "dtype": "float32"}, {"name": "2172/kernel", "shape": [3, 3, 64, 32], "dtype": "float32"}, {"name": "2172/bias", "shape": [32], "dtype": "float32"}, {"name": "2175/kernel", "shape": [3, 3, 64, 32], "dtype": "float32"}, {"name": "2175/bias", "shape": [32], "dtype": "float32"}, {"name": "2178/kernel", "shape": [3, 3, 64, 32], "dtype": "float32"}, {"name": "2178/bias", "shape": [32], "dtype": "float32"}, {"name": "2181/kernel", "shape": [3, 3, 64, 64], "dtype": "float32"}, {"name": "2181/bias", "shape": [64], "dtype": "float32"}, {"name": "2184/kernel", "shape": [3, 3, 128, 64], "dtype": "float32"}, {"name": "2184/bias", "shape": [64], "dtype": "float32"}, {"name": "2187/kernel", "shape": [3, 3, 64, 16], "dtype": "float32"}, {"name": "2187/bias", "shape": [16], "dtype": "float32"}, {"name": "2190/kernel", "shape": [3, 3, 16, 16], "dtype": "float32"}, {"name": "2190/bias", "shape": [16], "dtype": "float32"}, {"name": "2193/kernel", "shape": [3, 3, 16, 16], "dtype": "float32"}, {"name": "2193/bias", "shape": [16], "dtype": "float32"}, {"name": "2196/kernel", "shape": [3, 3, 16, 16], "dtype": "float32"}, {"name": "2196/bias", "shape": [16], "dtype": "float32"}, {"name": "2199/kernel", "shape": [3, 3, 16, 16], "dtype": "float32"}, {"name": "2199/bias", "shape": [16], "dtype": "float32"}, {"name": "2202/kernel", "shape": [3, 3, 16, 16], "dtype": "float32"}, {"name": "2202/bias", "shape": [16], "dtype": "float32"}, {"name": "2205/kernel", "shape": [3, 3, 16, 16], "dtype": "float32"}, {"name": "2205/bias", "shape": [16], "dtype": "float32"}, {"name": "2208/kernel", "shape": [3, 3, 32, 16], "dtype": "float32"}, {"name": "2208/bias", "shape": [16], "dtype": "float32"}, {"name": "2211/kernel", "shape": [3, 3, 32, 16], "dtype": "float32"}, {"name": "2211/bias", "shape": [16], "dtype": "float32"}, {"name": "2214/kernel", "shape": [3, 3, 32, 16], "dtype": "float32"}, {"name": "2214/bias", "shape": [16], "dtype": "float32"}, {"name": "2217/kernel", "shape": [3, 3, 32, 16], "dtype": "float32"}, {"name": "2217/bias", "shape": [16], "dtype": "float32"}, {"name": "2220/kernel", "shape": [3, 3, 32, 16], "dtype": "float32"}, {"name": "2220/bias", "shape": [16], "dtype": "float32"}, {"name": "2223/kernel", "shape": [3, 3, 32, 64], "dtype": "float32"}, {"name": "2223/bias", "shape": [64], "dtype": "float32"}]}]}